model.pth (torch, 174407 bytes, 14 tensors)

fc1.weight f4 [64, 498]
000000 33 4a 54 3d f8 6a 99 3c aa 14 53 3b 11 d7 2e bd
       0.051828574 0.018727764 0.0032208362 -0.042685572
000010 36 8c 87 3c 1d 0e c6 3c be 50 5c 3d 40 8a 41 3c
       0.01654635 0.024176652 0.05378794 0.0118127465
000020 3f b6 36 bc f0 95 b1 bb 85 38 86 3b 74 bd 81 3d
       -0.011151849 -0.0054194853 0.004096093 0.063349634
000030 55 ea 1b 3d 23 2e 8b 3c 62 da 0a 3d 57 7c 20 3d
       0.038065273 0.016989773 0.033899672 0.03918108
000040 6e 47 2c 3d a7 0a b6 3c 53 81 98 bc 3b 61 ac bc
       0.04206031 0.022221876 -0.018616354 -0.021042457
000050 5d f3 02 3d 23 6e 87 3c 3d 11 f5 bb a0 81 95 3c
       0.03197037 0.01653201 -0.0074788616 0.018250287
000060 40 b3 54 3d f8 20 ee 3a b6 0f a2 3c 0b 83 db 3c
       0.05192876 0.0018167784 0.019782882 0.026795885
000070 8d 92 91 3c 19 d0 3a 3c 87 06 4b bd 63 4f bb 3c
       0.017770076 0.011402153 -0.04956677 0.022865003
000080 7c 79 e5 bc d3 f1 48 3c e6 34 7f 39 62 a4 53 3c
       -0.02801203 0.012264687 0.00024338401 0.01291761
000090 30 e5 b6 3b ab f8 04 bb 06 a9 f0 3c 23 c0 38 bd
       0.0055815205 -0.002028982 0.029377472 -0.04510511
0000a0 11 f3 18 3d 6f 5a a5 3b d4 c6 40 3d 5e 7e c2 3c
       0.03734118 0.005046181 0.047064617 0.023741897
0000b0 fe 8c 16 bc 57 b5 98 38 cd 22 bb 3c 30 8b 43 3d
       -0.009188889 7.281702e-05 0.022843743 0.04774016
0000c0 a0 e5 26 bd ba 79 f8 3c 2f e6 32 bd ba 72 e5 bb
       -0.04074633 0.030331481 -0.04367655 -0.007002202
0000d0 92 58 07 3c 68 07 45 bd 46 00 1b bc 15 41 3c 3c
       0.008260863 -0.048102766 -0.009460514 0.011490126
0000e0 b3 b7 a1 3b dd a5 fd bc ef da 85 3d 90 f5 07 3d
       0.0049352287 -0.030962879 0.06535899 0.03319317
0000f0 5e 27 83 bc 28 8f 0b bc a4 d3 e9 bc 4f ed 0d bd
       -0.016009983 -0.008518018 -0.0285433 -0.034650143
000100 f3 f1 b2 3b 42 1b e6 3c d4 d1 60 bc 86 a5 32 bd
       0.0054609715 0.02808917 -0.013721902 -0.043614887
000110 a8 dc 93 bd 53 2d fc 3b 6e 38 42 3d 92 03 32 3c
       -0.07219821 0.0076958328 0.047417097 0.010865109
000120 65 0b 83 bd 39 72 50 3b a3 5b b4 3d 3d 39 80 bd
       -0.06398658 0.0031806363 0.08806541 -0.06260917
000130 44 e8 a3 bc 46 72 71 bc 50 b0 c8 bc 1a 59 18 3d
       -0.020008214 -0.014736718 -0.024498135 0.03719435
000140 70 27 99 3c 0a 14 f3 3c c7 98 67 3d 91 e6 a0 bc
       0.018695563 0.029672641 0.056542184 -0.019641193
000150 d6 8f ad 3c 2a 5d 67 bd 7d 1e c8 bb 50 2e 82 3c
       0.02118675 -0.056485333 -0.00610715 0.015891224
000160 ea 05 3a 3b 9a af d0 3c b5 3e 32 3c 3f 7c 74 bb
       0.0028384873 0.025474358 0.010879208 -0.0037305502
000170 f2 0e 0e 3c 43 cb 1e 3d 36 cf 84 bc 16 30 51 bc
       0.008670555 0.038768064 -0.016212087 -0.012767812
000180 17 60 99 3c 5f 1b e1 bc a2 20 db bc d4 d4 cb 3d
       0.018722577 -0.027478872 -0.026748959 0.09952703
000190 88 c7 c8 3d a4 99 f0 bc 5e f6 07 bd 65 07 dc 3c
       0.098036826 -0.029370137 -0.03319394 0.026858995
0001a0 e4 3f eb 3c 31 b7 39 bd 4e a4 7d bc df d8 1e 3c
       0.028716989 -0.04534072 -0.015481068 0.009695261
0001b0 52 5f 92 3d 6c f2 b2 ba ba bd 40 3d cc c9 2a 3d
       0.07147087 -0.001365257 0.047055937 0.041696355
0001c0 1f ec 91 3d 26 41 72 3d e9 9c e9 3c 50 bc 85 bd
       0.07125115 0.05914416 0.028517203 -0.065300584
0001d0 10 8d e1 bb af af 31 3d eb 0c 5c bd ff 75 8e bc
       -0.006883271 0.043380436 -0.053723257 -0.01739025
0001e0 cd ed ff 3c 06 3a 39 bc 56 0a eb 3c 85 88 0f 3c
       0.031241322 -0.011305338 0.028691452 0.008760576
0001f0 c7 75 7c 3c fb 10 71 bc 71 59 94 bc 79 d5 ab bd
       0.01540894 -0.014713521 -0.018109055 -0.08390326
000200 80 89 ef 3c b5 de 1b 3d 55 2f 29 3d a8 02 2c bc
       0.02924037 0.038054187 0.041304905 -0.01049868
000210 b5 39 31 bd 6c 94 9c bc 42 80 25 3c fa e9 db bb
       -0.043267924 -0.019113742 0.01010138 -0.006711242
000220 c2 a6 9d 3c 56 b0 0d bc b8 5c 1e bd a5 33 ec bc
       0.019244555 -0.008647999 -0.038662642 -0.02883322
000230 38 85 f8 3b 2d 15 2a 3d b4 99 1f 3c 5e d3 5f bb
       0.0075842403 0.0415241 0.0097412355 -0.0034153084
000240 43 61 84 bc 17 c9 33 bd ad d2 9b bd c6 1b 42 3d
       -0.01615966 -0.043892946 -0.076085426 0.047389768
000250 88 8d 2a bd dd d7 ab bd 3a a7 f5 bc fa 28 72 3c
       -0.04163888 -0.08390782 -0.029986966 0.014780277
000260 a2 1a 15 bd 3d be 56 3c e2 91 9a 3b 17 3e 61 3d
       -0.036402352 0.01310688 0.0047170976 0.054990854
000270 b8 f6 ae bc 65 93 50 bc 3d df bb bc d0 5a 33 3c
       -0.021357879 -0.012730454 -0.022933597 0.010946944
000280 d4 3a d2 bc b9 65 1e 3d 49 f4 5e bc 85 e7 8e 3b
       -0.025662817 0.03867123 -0.013608047 0.0043610954
000290 36 02 82 bc fb ff 81 bd 85 79 d8 bc 7c c9 63 bd
       -0.015870195 -0.063476525 -0.026425133 -0.055612072
0002a0 ff 6f fe 3c 1e 2e 8f bd c2 d4 b1 bd 0f bb 6f 3c
       0.031059263 -0.06991218 -0.086831585 0.014632001
0002b0 71 ea 2b bd 47 42 43 3d 2e 71 8b 39 f2 aa 8c bd
       -0.041971628 0.04767063 0.0002659647 -0.06868543
0002c0 fe a3 08 3c 6c 79 13 bb 16 a4 3a bd 28 a8 30 3c
       0.00833988 -0.0022502793 -0.04556664 0.010782279
0002d0 6c 4a d9 bc a9 0b 06 bd 3a ec 05 3b 5f a4 b3 bd
       -0.026524745 -0.032725964 0.0020434991 -0.08771586
0002e0 a7 4b 88 3d d2 35 4f bd 8a bd 15 bd a8 0f 08 3d
       0.066550545 -0.050588436 -0.03655771 0.033218056
0002f0 ab ae f7 3a ed b7 d9 bc 18 3d 3e 3d fe f0 4e bb
       0.001889666 -0.02657696 0.046444982 -0.0031576748
000300 ac 0f 27 bd 60 6a c6 3c 61 33 1f 3b 4d f2 27 3c
       -0.04078643 0.024220645 0.0024292099 0.01025064
000310 00 83 34 bd 62 75 f0 bb be ce 84 3c 84 d8 88 3c
       -0.044070244 -0.007338212 0.016211864 0.016704805
000320 ff 63 2e ba 0c f7 a0 bc 47 c9 ca bc 58 93 11 bb
       -0.0006652474 -0.019649051 -0.02475418 -0.0022213068
000330 5f ab 82 bc 98 27 c1 3c b8 2a 3b bd d6 31 57 bd
       -0.015950857 0.02357845 -0.045695037 -0.05253776
000340 cf d6 61 bd 3d ff 46 bc 46 27 32 bb df 36 ea bc
       -0.055136498 -0.0121458145 -0.0027184053 -0.028590618
000350 1a ab ef 3b 2e f9 21 bd c0 1b a8 bd ba d0 a0 bc
       0.007314098 -0.039544277 -0.08208418 -0.019630779
000360 4f 99 ad 3c 31 4a 01 bd 52 14 33 3d 7e 40 23 bc
       0.021191267 -0.031564895 0.04372055 -0.009964107
000370 44 df f4 3c 3a ad 14 bb 39 b8 ac 3b 51 30 d3 bc
       0.029891618 -0.002268626 0.0052709845 -0.025779875
000380 e2 25 2d bc 30 c0 dc bb 67 9a 83 bc fa 8e 74 3d
       -0.010568114 -0.0067367777 -0.016064836 0.059706666
000390 9f 27 57 3d 56 44 1b bc 3e d7 99 bc 6d 3c d4 3c
       0.05252802 -0.009476742 -0.018779393 0.02590772
0003a0 00 dd ba 3c 4b ac 29 3d 1f 2d ca 3c b5 7f 86 bc
       0.02281046 0.041424077 0.024679719 -0.016418317
0003b0 1a 1f a5 bc 96 99 b7 3b f7 ff a5 bc ed 29 d5 3c
       -0.020156432 0.0056030257 -0.020263655 0.026020968
0003c0 2e 11 75 3d 72 2f c7 3d 2e 32 83 3c 79 65 69 3d
       0.059830837 0.09725846 0.016015138 0.056981537
0003d0 48 e3 b9 bd 6d e9 84 3d 30 dd 02 3d 7a 65 66 bb
       -0.090765536 0.06489835 0.031949222 -0.00351557
0003e0 c1 bc b1 bc fb 5c 12 3c f5 7a ce bc bf 07 b0 bc
       -0.02169645 0.008933301 -0.025205115 -0.021488069
0003f0 f3 4a 41 3c f0 49 95 bc 6b 02 2a 3d 28 6b 80 bc
       0.011797654 -0.018223733 0.041506212 -0.015676096

fc1.bias f4 [64]
000000 57 3a 2b 3d c0 71 17 3b 01 4a af bc 55 a3 00 bd
       0.041803684 0.0023108572 -0.021397592 -0.031405766
000010 d8 06 a5 3c 53 f9 e9 bc 7e 13 2a 3d 88 4c f8 3c
       0.020144865 -0.02856127 0.041522495 0.03030993
000020 3a c0 4b 3c 20 fe f3 bc 19 c7 bc 3c a7 35 4a bc
       0.012435967 -0.029784262 0.023044156 -0.012341893
000030 a7 b0 53 bb 00 48 50 bd e3 fa 18 3d b3 4c d7 3c
       -0.0032301338 -0.050849915 0.03734864 0.02628169
000040 9a 16 04 3d a1 2a 19 bc de 20 35 3c 4a 24 47 bd
       0.032248117 -0.009348542 0.011055199 -0.048618592
000050 e7 b3 20 3d de 4c 90 3d 6b 42 99 bd 51 63 b4 3b
       0.03923407 0.07045911 -0.07483371 0.0055050035
000060 93 d0 e8 bb 13 e8 b1 bd dc 62 91 3d 8e 5f c6 3b
       -0.007104942 -0.08686843 0.07098934 0.0060538715
000070 49 16 d7 3c 36 67 0b bd d2 33 dc 3c 5b de 53 3d
       0.026255744 -0.034033976 0.026880179 0.051725727
000080 70 e3 cf ba 43 8d 91 bc 40 09 ff 3c 3c 04 1b bd
       -0.0015860628 -0.017767554 0.03113234 -0.037845835
000090 ec f6 4a bd 82 48 bc bc 5a aa 0f 3b c7 72 ee 3c
       -0.04955189 -0.022983793 0.0021921606 0.029107464
0000a0 12 a2 a8 3c 88 0e cc 3d 05 fc 68 bc 3d bc 66 3b
       0.020585094 0.09963709 -0.014220242 0.0035207414
0000b0 8f f1 93 bc b8 ae 00 3d 62 a3 3d 3d ef a4 ef 3c
       -0.01805952 0.031416625 0.046298392 0.029253451
0000c0 87 4a 02 3c 72 52 6d 3b 88 40 16 3c 8c 6a fc bc
       0.007952339 0.0036212471 0.009170659 -0.030812524
0000d0 18 44 44 3c c8 02 15 3d 1e fa b7 3c 71 15 85 3b
       0.011979125 0.036379606 0.022458132 0.004061394
0000e0 dc 63 8e bd b3 a8 48 bd ca 04 96 3c ac a4 51 3c
       -0.069526404 -0.04898901 0.01831283 0.0127956085
0000f0 48 2b c7 3b 7e a8 34 3c 88 ac e7 bc ca 5d 2d bd
       0.0060781576 0.0110265 -0.028280511 -0.042325772

bn1.weight f4 [64]
000000 3d 21 80 3f 85 1f 7f 3f 98 81 7f 3f db d8 6b 3f
       1.0010144 0.9965747 0.9980712 0.9212777
000010 7f 56 6d 3f 6a dc 82 3f d5 8c 75 3f b1 30 7e 3f
       0.9271011 1.0223515 0.9591802 0.9929305
000020 d6 42 82 3f fb a4 7b 3f c3 06 7c 3f 18 7b 81 3f
       1.0176647 0.98298615 0.9844782 1.011569
000030 f5 98 83 3f 9b f2 82 3f 88 a8 61 3f 9c fe 73 3f
       1.0281054 1.0230287 0.88147783 0.9531038
000040 62 d4 7b 3f 84 a2 75 3f 01 87 66 3f 69 5c 77 3f
       0.98370945 0.95951104 0.9004975 0.9662538
000050 d6 80 77 3f 3a 3a 7b 3f ee 17 74 3f 63 06 80 3f
       0.96680963 0.9813572 0.95349014 1.0001949
000060 8a 86 82 3f aa 6a 81 3f 1b 0e 79 3f 82 20 7c 3f
       1.0197308 1.0110676 0.9728715 0.98487103
000070 c2 1b 73 3f 7b 0a 78 3f 5d 96 7d 3f 3d 59 7d 3f
       0.9496423 0.9689099 0.9905756 0.9896429
000080 a7 49 79 3f 02 a5 6d 3f 0c 5f 77 3f 6c a6 77 3f
       0.9737801 0.92829907 0.96629405 0.96738315
000090 16 e4 7f 3f 13 fb 72 3f f4 27 7a 3f c1 6c 76 3f
       0.99957407 0.9491436 0.97717214 0.96259695
0000a0 c9 d5 78 3f 24 27 83 3f 6e 6e 83 3f 95 17 67 3f
       0.9720121 1.024632 1.0268075 0.9027036
0000b0 a3 78 72 3f 75 db 83 3f ec dd 7b 3f 67 7e 7c 3f
       0.9471533 1.0301348 0.983855 0.98630375
0000c0 30 0a 7f 3f 67 64 7e 3f d6 08 7f 3f 1a 58 75 3f
       0.9962492 0.9937195 0.9962286 0.9583756
0000d0 7c 22 75 3f 61 6a 78 3f 10 fc 86 3f a1 6b 76 3f
       0.95755744 0.9703732 1.0545673 0.9625798
0000e0 65 28 7a 3f 0e a4 85 3f fa 3c 7c 3f f0 25 83 3f
       0.9771789 1.044069 0.9853054 1.0245953
0000f0 a2 ff 7b 3f ce 4b 7b 3f 11 11 6d 3f 80 7d 66 3f
       0.9843694 0.98162544 0.92604166 0.9003525

bn1.bias f4 [64]
000000 46 aa f5 3c b9 9c ab bb d6 67 b4 3b 2b ff 63 3d
       0.02998842 -0.0052371887 0.0055055423 0.05566327
000010 08 71 5b bb 87 83 2a 3d 72 a7 43 39 23 05 30 3d
       -0.003348412 0.04162934 0.00018659027 0.04297365
000020 6a 3b ec 3c 8a 78 9c 3c 60 11 b5 bb 93 95 0d bb
       0.028836925 0.019100446 -0.005525753 -0.0021604046
000030 d1 e2 2e 3d 47 f5 95 3d 6e 97 16 3d 81 c8 7b bc
       0.042696778 0.073221736 0.03676551 -0.015367628
000040 9e e7 d6 3a a6 95 c1 3c d7 04 36 3d a3 76 2d 3d
       0.0016395932 0.023630928 0.04443821 0.04234947
000050 9f 2b a2 3d 8d 2c 51 3d 65 fd ca 39 25 4b 85 3d
       0.07918476 0.051067878 0.00038717236 0.06508473
000060 50 51 92 3c f6 d4 98 3c b1 a2 73 3a 09 c9 68 3d
       0.017861038 0.018656235 0.0009293957 0.056832347
000070 1e b0 d6 bc ef cc 23 3d 84 ff a1 3c 7c 91 6a 3d
       -0.026207026 0.03999036 0.01977516 0.05726765
000080 59 76 83 3c ba a6 88 bd 58 85 ff 3c 12 de 9b bc
       0.016047643 -0.066724256 0.031191513 -0.01902679
000090 2a ea 6a 3d ef 77 77 3d be db bb bc 53 51 05 3b
       0.057352223 0.060417112 -0.02293193 0.0020342662
0000a0 56 13 3b 3c db 41 13 3d 63 9d de 3c 89 08 f9 3c
       0.011418184 0.035951477 0.027174657 0.030399578
0000b0 be 15 0d bd 23 a5 16 3d 6d 26 be bc b4 0d fa 3c
       -0.034444563 0.03677858 -0.023211682 0.030524112
0000c0 b4 2c f6 3c a5 00 b5 3c a9 d3 a6 3d a9 f4 10 3d
       0.030050613 0.022095034 0.0814584 0.035389576
0000d0 f2 f7 82 3d e1 a6 b2 3c 92 f5 c1 3d 89 1f a6 bc
       0.06394948 0.02180809 0.09470667 -0.020278709
0000e0 45 5b 57 3d ce f8 c6 3d 3f 42 8c 3b 20 23 58 3d
       0.052577276 0.097154245 0.004280358 0.052767873
0000f0 9c 67 da 3c ff 02 0a 3d 13 02 a9 3c ba c7 a8 bd
       0.026660733 0.033694264 0.020630872 -0.0824122

bn1.running_mean f4 [64]
000000 5c b1 49 3d c7 c8 97 3c 9a f3 d2 bc 62 a1 9c bc
       0.04924141 0.018528355 -0.025750924 -0.019119922
000010 a4 0f bb 3c bf 97 22 bd 32 c3 24 3d 27 1c f4 3c
       0.022834606 -0.039695498 0.040225215 0.02979858
000020 3f fa b7 bc 1a f2 df bb 1d ac bb 3c 64 9b ad bc
       -0.022458194 -0.0068342807 0.022909218 -0.02119226
000030 3f 9b 1d bc ea fb 4e bd 24 94 2b 3d dc 2a 00 3c
       -0.009619533 -0.050533213 0.041889325 0.0078227185
000040 ca dc f6 3c c1 0a d7 bc 76 88 de bc 0a b4 68 bd
       0.030134577 -0.026250245 -0.027164679 -0.056812324
000050 f9 c3 50 3d b3 6d 75 3d ed f7 af bd a7 9e b1 3b
       0.050968144 0.05991907 -0.0859221 0.005420524
000060 f2 81 bb ba de 17 bb bd 28 49 82 3d 7e d2 4b 3c
       -0.0014305694 -0.09135412 0.0636161 0.012440322
000070 33 28 6c 3c 67 80 5a bd 58 89 85 3b c2 70 19 3d
       0.014413881 -0.05334511 0.0040752105 0.03746105
000080 40 39 c9 bb 72 48 18 bd 9f 1b 13 3d 6e 17 43 bd
       -0.006140858 -0.037178464 0.035915013 -0.047629766
000090 77 59 3f bd e1 28 15 3b a2 a5 79 3c 5c a5 b1 3c
       -0.04671618 0.0022759961 0.015237244 0.021685295
0000a0 85 73 94 bb d5 25 bb 3d 18 5f e4 bc 38 a3 2b 3c
       -0.0045303726 0.09138075 -0.027877375 0.010475926
0000b0 b2 ff d1 bc 7a 61 a8 3c cf 07 29 3d 3b 41 2c 3d
       -0.02563462 0.020554293 0.041267212 0.042054396
0000c0 13 2c 7a 3c c1 09 0b 3b f6 e6 2f bb df 3b 1d bc
       0.015269297 0.002121553 -0.0026840544 -0.009596794
0000d0 8d da 9f ba 09 d1 54 3c 1c 53 9a bc 15 c6 7b 3c
       -0.001219587 0.012989291 -0.018838458 0.015367051
0000e0 39 e7 e9 bd 30 63 78 bd 1e 89 c6 bc 66 a3 fa 3b
       -0.11421055 -0.060641468 -0.024235304 0.007648873
0000f0 04 3a 8f b9 3c c9 95 bc b4 8e a6 bc a0 b0 25 bd
       -0.0002731831 -0.018284433 -0.020331718 -0.040451646

bn1.running_var f4 [64]
000000 80 a8 76 3b 22 75 a2 3b 40 6e 73 3b 7a 6b 99 3b
       0.0037637055 0.004957811 0.0037144572 0.0046820017
000010 f5 80 d1 3b 23 1c 85 3b 7e 5b 8e 3b 55 df b1 3b
       0.0063935467 0.004062192 0.004344403 0.0054282346
000020 bb a4 ae 3b 45 13 74 3b 49 24 65 3b 06 c4 81 3b
       0.005329696 0.003724293 0.0034964255 0.0039601354
000030 7b e5 73 3b 24 cc e0 3b 23 6f 95 3b 38 de 6b 3b
       0.0037215638 0.006860273 0.0045603677 0.0035990607
000040 6c 45 6e 3b 36 a8 95 3b b2 e3 85 3b a9 d1 85 3b
       0.0036357297 0.0045671714 0.0040859813 0.0040838313
000050 55 b4 97 3b 9c 32 c9 3b c7 57 8a 3b 48 36 d3 3b
       0.0046296516 0.0061400663 0.0042218897 0.00644568
000060 79 cb b1 3b 2d 3a 6f 3b 20 be ac 3b 12 06 a7 3b
       0.005425867 0.0036503181 0.005271688 0.005097159
000070 00 ce ce 3b a4 59 7a 3b 2b ee 9b 3b dd e7 40 3b
       0.006311178 0.0038200403 0.0047586164 0.0029435076
000080 35 72 84 3b 83 1b a5 3b f8 2a ba 3b 12 d0 76 3b
       0.004041935 0.00503868 0.005681392 0.003766064
000090 0d 41 99 3b e8 5f d4 3b 05 a7 74 3b 32 0f 3d 3b
       0.004676944 0.0064811595 0.0037330997 0.0028848168
0000a0 2c e8 b4 3b b9 8d b9 3b f3 0a 89 3b 1b dc 92 3b
       0.005520841 0.0056626466 0.0041822135 0.004481805
0000b0 8f ea 97 3b 9b cc 8e 3b f9 64 5b 3b b1 b1 43 3b
       0.004636116 0.004357887 0.0033476932 0.002986055
0000c0 95 32 7e 3b bd ae 6b 3b ad 50 59 3b 6d 7c e1 3b
       0.0038787473 0.0035962306 0.0033159659 0.006881288
0000d0 e1 e5 b5 3b 36 f0 a2 3b 3b e8 c6 3b 25 96 69 3b
       0.0055510853 0.004972483 0.0060701645 0.0035642472
0000e0 ad 61 cd 3b ce 64 7c 3b e2 18 84 3b 63 12 87 3b
       0.0062677474 0.0038512233 0.0040312866 0.004122065
0000f0 97 42 65 3b cc b3 85 3b dd 7a 7f 3b ed 71 c7 3b
       0.0034982318 0.0040802713 0.0038983144 0.006086579

fc2.weight f4 [64, 64]
000000 16 68 ca bd d6 e5 82 bd 72 16 8a 3d 85 4e a7 3d
       -0.09883134 -0.06391494 0.06742562 0.08169273
000010 a7 fe 7e 3d 96 d8 3a 3c 1c 1e 76 bd a2 76 ad bd
       0.062254574 0.011404177 -0.06008731 -0.08469893
000020 13 eb 9f 3d 73 bf 94 3d 80 87 8e bd 65 4b 54 3c
       0.07808509 0.072630785 -0.06959438 0.012957429
000030 9f 44 94 bc 6e f0 b8 bd d4 7e 88 bd 15 d4 d2 3c
       -0.018099127 -0.09030233 -0.066648155 0.025735894
000040 fc 67 27 3d f6 8d 40 bd fa 5d 09 be bd 84 fa 3c
       0.04087065 -0.047010385 -0.13414755 0.030580873
000050 35 87 99 bc 79 5b bd 3d f1 68 30 3d fb 4b 08 3d
       -0.01874123 0.09245963 0.04306883 0.033275586
000060 76 35 b3 bd 2f fe 96 bd e6 18 63 bd 67 47 00 bd
       -0.08750431 -0.073727004 -0.055443667 -0.031318095
000070 6a 86 07 3d 93 52 61 3d dd 20 22 bd 00 b1 13 3e
       0.03308717 0.05501039 -0.039582122 0.14422989
000080 f7 69 a9 b9 88 21 dd 3d 5f ea 15 3e 94 07 b8 bd
       -0.00032313142 0.10797411 0.14640187 -0.089858204
000090 16 93 00 3d f5 ee ef bd 2e 1e e6 3d ff f5 c8 3b
       0.031390272 -0.11715499 0.11236225 0.0061328406
0000a0 36 89 de bd 50 7d 85 3d 9e fa 6b 3b df 42 33 bd
       -0.10866015 0.06518042 0.0036007534 -0.043764945
0000b0 ff 86 30 3d 20 2f 1c 3c cc 4e a6 bd b0 9f 69 bc
       0.043097492 0.00953272 -0.08120498 -0.014259264
0000c0 68 55 1b 3e 0a 68 c4 bd e6 97 27 be 12 cc be bd
       0.15169299 -0.095901564 -0.16366538 -0.09316267
0000d0 f4 d4 9b bc 72 de c5 3d 85 d2 9b bd 27 16 4b 3d
       -0.019022442 0.09661569 -0.07608513 0.049581673
0000e0 7f 6a 03 bb 5e 3b b6 bd 31 3c c9 3c 31 b7 5f 3b
       -0.002005249 -0.08898042 0.024564834 0.003413629
0000f0 3b 47 45 bd e4 a5 6d bd b7 4f b8 3c 60 52 3e bd
       -0.048163634 -0.058019534 0.022498948 -0.046465278
000100 63 d4 cb bd 32 55 38 3e 6c 07 a7 bc 08 ae e3 3d
       -0.09952619 0.1800125 -0.020389281 0.11117178
000110 1e a6 13 3e 89 ed 7e bd 83 7a d9 bc 7b 40 27 3d
       0.14418837 -0.06223825 -0.026547676 0.040832978
000120 39 a3 9c 3c 26 90 c1 bd 10 25 86 bd db f3 d7 bd
       0.0191208 -0.09451322 -0.06550038 -0.105445586
000130 1d cb 1f 3e 1a c8 99 3c 73 e3 b8 bd a7 62 c6 3c
       0.15604825 0.018772174 -0.090277575 0.024216963
000140 0b 90 55 bc ff e0 81 bc b2 5f cc 3d f9 4e 88 ba
       -0.013034831 -0.015854357 0.0997919 -0.0010399512
000150 c4 10 83 3c ad 6c 05 be 80 07 29 3c cc 6e 3a 3a
       0.015999205 -0.13029738 0.01031673 0.0007111847
000160 3d 89 e8 bb 23 1a 6d 3c ac 7f 04 3b 9f 12 68 3d
       -0.007096438 0.0144715635 0.00202177 0.056658383
000170 e5 cb 2b bd 51 a9 75 3d b2 23 a0 bd 58 e1 31 3d
       -0.041942496 0.059975926 -0.07819308 0.043427795
000180 9c fe b7 3d 4f ec 13 3a 7c 58 4e bb c9 e8 1b 3e
       0.0898411 0.00056428177 -0.0031485846 0.15225519
000190 83 40 13 be 90 e9 5f 3b 9f 51 e9 bd b5 a8 c9 bc
       -0.14380078 0.0034166314 -0.11392521 -0.024616579
0001a0 52 3e 0b bd a6 be a6 bc 31 c7 03 3d 1e ca 23 3b
       -0.03399498 -0.02035458 0.032172386 0.0024992297
0001b0 22 34 91 bd 31 8f 8f bc 40 e8 cb bd 74 61 06 3e
       -0.07090022 -0.017524334 -0.099564075 0.13123113
0001c0 9c de c1 bb 3a e5 b1 3d ee 45 af bc 44 b1 9d 3c
       -0.0059164297 0.086862996 -0.02139565 0.019249566
0001d0 a6 cf b5 bd f1 89 12 bc b0 6e f4 bc b9 53 d9 3c
       -0.088774964 -0.008944021 -0.029837936 0.02652918
0001e0 2a 40 6d bd 4d 5d af bb 6b 18 82 bd b6 09 32 3d
       -0.05792252 -0.0053516985 -0.063523136 0.043466292
0001f0 eb be 0a bd 5b 81 c8 bd b3 39 08 bd bf d9 76 bd
       -0.03387348 -0.097902976 -0.03325815 -0.060266253
000200 12 ba 3c bd ff 32 86 3d c2 2c e5 bd df f0 6d bc
       -0.046075888 0.065526955 -0.111901775 -0.01452276
000210 28 eb 91 bd db a5 7a bd 60 f8 20 bc 0c a1 96 3d
       -0.071249306 -0.06119333 -0.009824842 0.07354936
000220 10 87 ba 3d a6 57 71 3d f9 42 4b 3c 31 a3 bd 3d
       0.091077924 0.05892148 0.012406104 0.09259642
000230 e5 61 80 bd 56 bd 85 bd b6 83 42 3c 89 7b 9f 3c
       -0.06268672 -0.065302536 0.011872223 0.019468086
000240 91 ff a4 bc d9 51 5d 3d 8d 9c 36 3d 9f f9 d7 bd
       -0.020141395 0.054033134 0.044582892 -0.10545658
000250 75 cb ab bd 52 67 ea 3d e9 ed 99 bd ec e9 88 bd
       -0.08388416 0.11445488 -0.07516081 -0.06685242
000260 62 08 ee 3d aa cd 07 be a7 96 c7 bd 2b 5f a2 3d
       0.11622693 -0.13262048 -0.097455315 0.07928308
000270 59 f2 47 bd bc 3a 5e 3d b2 5d 48 bb cd c6 57 3d
       -0.048815105 0.054255232 -0.0030573425 0.052679826
000280 5a 53 ff 3c 25 6e 0c bd 03 4c d0 bd 2f 74 a6 3d
       0.031167675 -0.03428473 -0.10170748 0.08127629
000290 b1 11 d8 3c 78 3a 05 be b0 ce 79 3d 98 d4 9a bd
       0.026375623 -0.13010585 0.06098813 -0.0756008
0002a0 1c 1d 7e 3d b5 b6 eb 3d 6b 31 0f bc 0e 47 09 3b
       0.06203948 0.11509458 -0.0087398095 0.0020946893
0002b0 93 b2 4c bc 17 f7 18 be 22 8d c3 3d a8 7c a6 3d
       -0.012493747 -0.14938007 0.09548403 0.08129245
0002c0 c0 00 04 be 22 2f 03 be a7 9e 76 3d 8e 2f 90 bd
       -0.12890911 -0.12810948 0.060209896 -0.0704032
0002d0 c9 3e c4 bd e1 bc 04 be 80 e2 22 be 39 4f 5c 3d
       -0.09582288 -0.12962677 -0.15906715 0.05378649
0002e0 db b3 6e 3d 46 fe ad bc 21 15 93 3d 81 18 90 3d
       0.058276992 -0.021239411 0.071817644 0.07035924
0002f0 85 f1 09 3e 9a 24 c6 bb 1a 20 01 be 12 3d 72 bb
       0.13471039 -0.0060468437 -0.12609902 -0.003696267
000300 66 8c 0b 3d b4 5b 35 3d d4 d8 b5 3d 77 7b 09 be
       0.03406944 0.044276908 0.08879247 -0.13426004
000310 48 03 bd bd c0 0f ce bd d8 ab ae 3d 14 72 d2 bd
       -0.092291415 -0.10061598 0.0852887 -0.10275665
000320 e5 5c e9 3d d7 0c 96 3c 01 6a fa 3d c2 dc 96 bd
       0.11394671 0.01831667 0.1222725 -0.07366325
000330 6b 70 e9 bc 62 5c b7 3d 1f c1 73 3d 7a 01 53 bd
       -0.028495988 0.089531675 0.059510347 -0.05151508
000340 bc 61 d4 3b 55 e7 2d 3c a9 91 95 bc 96 7e 7e 3d
       0.0064813774 0.010614236 -0.018257933 0.06213244
000350 00 56 a3 3d 1f db 28 3d b8 e5 06 3e 1f 78 e6 3d
       0.079753876 0.041224595 0.13173568 0.1125338
000360 01 8e 4b bd a1 5b 7b bd b1 96 bf 3d 27 8c 11 be
       -0.049695972 -0.06136668 0.09354914 -0.1421362
000370 8f 49 c0 bc 18 ea 36 3d 02 61 c4 bd 9a 64 bc 3a
       -0.023472575 0.044656843 -0.09588815 0.0014373243
000380 9c 53 9e 3d 92 4b f5 3d 05 9c a2 bd c5 df 93 b9
       0.07730791 0.119773045 -0.079399146 -0.00028204746
000390 0e 04 99 3c e0 5a c6 3d a2 13 3b bc 38 7e 8d bc
       0.018678691 0.09685302 -0.011418255 -0.0172721
0003a0 00 0a 13 3e c9 cb 90 3d c7 d7 cc bc 05 4d 28 3d
       0.14359283 0.07070119 -0.025005234 0.041089077
0003b0 e2 93 14 3d 3e 97 16 be 27 e1 e1 3d 4d c3 af 3c
       0.036273845 -0.14706132 0.110292725 0.021455431
0003c0 af 6c 98 bc 62 fa df 3c ff 47 a3 3d b4 45 e9 bc
       -0.018606512 0.027341072 0.079727165 -0.02847562
0003d0 22 79 80 bc f7 ad 4d 3e c4 a0 24 3e 15 f6 cf bd
       -0.01568276 0.20085894 0.16076952 -0.10154358
0003e0 45 bb 31 bd 1d e7 f6 bd 14 15 ac bd b5 da eb bd
       -0.043391485 -0.120558 -0.08402458 -0.115163244
0003f0 dc cc 65 bd 42 55 8d bc 57 e5 f2 bd 30 24 16 bd
       -0.056103572 -0.017252568 -0.11860149 -0.036655605

fc2.bias f4 [64]
000000 13 a9 60 bd 85 8e 5b 3d 21 ea 29 3c be ca 6b bd
       -0.05484874 0.053602714 0.010370762 -0.057566397
000010 e3 7b 0a bc 85 51 7b bd 15 5a f3 bd 3a 77 c9 3d
       -0.008452388 -0.06135704 -0.11882416 0.09837194
000020 b9 c4 43 ba b5 13 b9 bd d9 0c b3 3d 8b b2 9a bd
       -0.00074679736 -0.09036962 0.08742685 -0.075535856
000030 09 92 bc 3c f2 f2 f0 bd a1 0b 97 bd 74 b7 e6 bd
       0.023018854 -0.11765088 -0.07375265 -0.1126546
000040 7a f8 be 3d 2a 0d dd bd 2f 58 b1 3d a4 a0 01 be
       0.09324737 -0.107935265 0.08659398 -0.12658936
000050 bb 44 3a bd 5c e1 0c 3d ad 7f 02 be 6e df eb 3c
       -0.045475703 0.034394607 -0.12744017 0.028793063
000060 3c 7b de 3b 19 aa 7a 3d e2 1f 3e 3d e3 27 d3 bd
       0.006789593 0.061197374 0.046417125 -0.10310342
000070 e9 bf d5 3d 8b d6 6a bd f0 5c 66 bd 21 a1 51 3c
       0.104369946 -0.05733351 -0.056240976 0.012794764
000080 a6 21 99 ba dd 99 cb 3c 0e fd bf 3c 11 2e c5 bd
       -0.0011683002 0.024853641 0.023436096 -0.09627927
000090 9e f1 6f bd f5 80 c1 3d c3 9f a3 bc a2 b7 ac 3d
       -0.058580033 0.09448425 -0.019973641 0.08433463
0000a0 35 0b 26 3d 53 01 c7 3d df da b3 bd c8 d6 22 3d
       0.04053803 0.097170494 -0.08781981 0.039755613
0000b0 94 e0 78 bd 75 81 cf 3c 6f 16 0d 3d ca 52 fe bd
       -0.06076105 0.025330285 0.034445222 -0.124181345
0000c0 e1 f0 b1 3d 74 12 97 ba b0 72 42 bd 2f 05 b2 bb
       0.08688522 -0.0011525885 -0.047472656 -0.005432747
0000d0 0f 43 26 3a b6 18 d9 3d 41 a5 d5 bd d1 53 5e 3c
       0.000634239 0.10600416 -0.1043191 0.013569788
0000e0 ff 54 8f bc 82 0b ac bd f6 58 50 3d b7 23 b2 3d
       -0.017496584 -0.084006324 0.05086609 0.08698218
0000f0 9e ba 99 bd 0f d3 39 3d 0d b3 98 bb 24 70 b3 3c
       -0.075062975 0.045367297 -0.0046600164 0.021904059

bn2.weight f4 [64]
000000 ed aa a4 3f 60 41 ad 3f f7 58 a5 3f 7a 1c a7 3f
       1.2864662 1.3535576 1.2917775 1.3055565
000010 d6 8b a6 3f 55 b8 ab 3f f8 aa a9 3f a0 81 a5 3f
       1.3011425 1.3415629 1.32553 1.2930183
000020 3c 5d a7 3f e2 d4 a7 3f 4b 3b ab 3f c9 ee ad 3f
       1.3075328 1.3111842 1.337747 1.3588496
000030 0f bd aa 3f 90 4b 9f 3f 89 b7 a8 3f a8 1a ab 3f
       1.3338946 1.2444935 1.318101 1.336751
000040 fe f8 a3 3f 5c 2d a9 3f 31 69 a9 3f a2 30 b2 3f
       1.2810361 1.3216968 1.3235227 1.3921092
000050 b4 7d b7 3f 34 e1 aa 3f 44 3e a9 3f 5c a5 aa 3f
       1.4335237 1.3349977 1.3222127 1.3331714
000060 3d 91 ae 3f c2 6d ac 3f db 3e a7 3f 50 8a b1 3f
       1.3638073 1.3470995 1.3066057 1.3870335
000070 9e e6 a9 3f 42 46 af 3f 49 36 a9 3f a8 47 a9 3f
       1.3273504 1.3693316 1.3219692 1.3224993
000080 18 84 a6 3f 9f e3 a2 3f b8 81 a1 3f 3d 71 ac 3f
       1.3009062 1.2725714 1.2617712 1.3472058
000090 09 f6 a5 3f 66 21 ac 3f 1c cd a5 3f fc 7f af 3f
       1.2965709 1.3447692 1.295322 1.3710933
0000a0 1f 2b a7 3f fa bc b4 3f d9 75 af 3f a6 d9 af 3f
       1.3060035 1.4120171 1.3707839 1.3738296
0000b0 9f 49 a6 3f cc d7 a3 3f a4 a7 ae 3f de e3 a5 3f
       1.2991217 1.2800231 1.364491 1.2960165
0000c0 1a bd a9 3f f2 c3 ae 3f 07 c2 ab 3f d0 e0 b3 3f
       1.3260834 1.3653548 1.3418587 1.4052982
0000d0 b5 49 aa 3f 5c a6 a5 3f 56 3e aa 3f be 8a ae 3f
       1.3303744 1.2941394 1.3300273 1.3636091
0000e0 52 fc b3 3f 09 27 b5 3f 88 54 ab 3f d6 95 ad 3f
       1.4061377 1.4152538 1.3385172 1.3561351
0000f0 73 8f ad 3f 39 8c ab 3f a2 f7 a7 3f 2b 7f b2 3f
       1.3559402 1.3402168 1.3122447 1.3945059

bn2.bias f4 [64]
000000 97 2a 84 3e 76 07 93 3e d4 0b 65 3e db 47 7d 3e
       0.25813743 0.2871663 0.22367793 0.24734442
000010 9c 69 75 3e 76 67 9b 3e 80 93 8a 3e db e6 8d 3e
       0.23966068 0.30352372 0.2706566 0.2771519
000020 44 51 9d 3e e2 b6 8e 3e 3d fe 93 3e bf 21 a6 3e
       0.30726063 0.27873904 0.28904906 0.3244762
000030 7c b2 90 3e 08 f8 6b 3e 21 6e 88 3e 38 b1 7b 3e
       0.28261173 0.23043835 0.26646522 0.24579322
000040 d5 55 7c 3e 36 37 73 3e 61 f7 83 3e 1d ea 93 3e
       0.24642117 0.2375153 0.25774673 0.28889552
000050 cb a9 b9 3e e7 44 93 3e fe 9d 83 3e ea f1 a1 3e
       0.36262354 0.28763506 0.25706476 0.31629878
000060 db 62 8b 3e 38 ca b5 3e a9 51 77 3e d3 e5 9e 3e
       0.27223858 0.35505843 0.24152245 0.31034717
000070 b2 1c 93 3e db 1c 98 3e 67 90 99 3e f4 ad 80 3e
       0.2873283 0.29709515 0.29992983 0.25132716
000080 69 f7 92 3e f7 0c 97 3e 46 02 81 3e 4d f4 96 3e
       0.28704384 0.2950208 0.25197047 0.29483262
000090 74 5f 90 3e 0b a3 8b 3e c7 7a 93 3e 74 ed b3 3e
       0.28197825 0.2727283 0.2880461 0.351421
0000a0 d0 ad 97 3e 5f c6 af 3e b9 6e a3 3e d5 4c 8f 3e
       0.29624796 0.34331033 0.31920412 0.27988306
0000b0 7f 27 86 3e a8 0f 81 3e d4 74 bd 3e 08 8a 6e 3e
       0.26202008 0.25207257 0.37003195 0.23294842
0000c0 45 6a 81 3e 33 70 90 3e 3c 35 9c 3e cb e7 b5 3e
       0.2527639 0.282106 0.30509365 0.35528407
0000d0 be 54 95 3e 78 1a 89 3e 8e 5c 92 3e 79 03 9a 3e
       0.29166216 0.26778007 0.2858624 0.30080774
0000e0 ef 0e b7 3e 4a f9 b1 3e be 5f 89 3e 0c 18 91 3e
       0.3575358 0.34760505 0.26830858 0.2833866
0000f0 26 21 98 3e a4 b9 9e 3e 6b e7 85 3e 5b a4 b3 3e
       0.2971279 0.31001008 0.2615312 0.3508633

bn2.running_mean f4 [64]
000000 8c a1 47 be c0 ac 3c bd 37 2b 0f be f9 34 a5 3d
       -0.19495219 -0.046063185 -0.13981329 0.08066744
000010 cc 0b 5b 3d 6b 27 22 be ec 73 39 3e 8c 42 f8 bc
       0.053478047 -0.1583535 0.18110627 -0.03030517
000020 f4 8e 6f 3c d7 0a 94 be 16 78 e2 3e 6f 5e 26 bf
       0.014621485 -0.2891452 0.44232243 -0.64987844
000030 34 d2 42 3d e3 5c 81 be 7e 35 a1 3e ac e8 d9 bd
       0.047563747 -0.2526618 0.31486124 -0.10640082
000040 53 db 96 3e 62 bd 0e be 62 a1 71 3e d6 e9 b0 be
       0.29464206 -0.13939431 0.23596719 -0.34553403
000050 a4 5d 67 be 6c 97 ad bd 90 84 83 be 52 08 96 bd
       -0.22594315 -0.08476147 -0.25687075 -0.07325806
000060 d3 56 09 be a4 0f c3 3e 70 79 bd 3b 04 1b 4d be
       -0.13412027 0.3809787 0.0057822987 -0.20029837
000070 f6 7f ba 3d bc 49 57 3e e0 2f 0d be ea 7a 88 3b
       0.09106438 0.21024221 -0.13787794 0.004165043
000080 cd 70 9e be fc 65 3c 3e b4 c8 8c 3e 10 ac 8a be
       -0.30945435 0.18398279 0.27496874 -0.27084398
000090 ac 80 2f be 22 e2 0d bd e5 e5 02 bd 7f d4 7d be
       -0.17138928 -0.034639485 -0.031957526 -0.24788092
0000a0 de 5f 70 be 62 c7 ba 3e 68 32 99 3d 47 a7 06 3e
       -0.2347407 0.36480242 0.07480317 0.13149749
0000b0 b0 11 d4 be 77 b9 6c be cf d4 e6 3d 6f cc 36 be
       -0.41419744 -0.23117624 0.11271059 -0.17851423
0000c0 14 ff b5 bd 89 44 76 3e 4f 3f 91 be af 84 56 3e
       -0.08886543 0.24049582 -0.28368613 0.20949052
0000d0 00 c2 45 b9 66 59 2c be e9 dc 02 bf 41 bf b3 3d
       -0.00018859655 -0.16830978 -0.5111833 0.08776713
0000e0 8a 2d 9c be 4a f3 4e be 3d 9f 40 be 3f 7e f9 3d
       -0.30503494 -0.20209995 -0.18810745 0.12182283
0000f0 b1 b6 4b 3d 02 c3 4a be 0c b3 81 3e 60 8b 2b 3d
       0.049734775 -0.19800952 0.25331914 0.041880965

bn2.running_var f4 [64]
000000 48 74 75 3e 76 fd a2 3e 43 09 92 3e 30 1b fb 3e
       0.23970139 0.31834 0.2852269 0.4904418
000010 8b 0c 6f 3e d1 56 57 3e d8 ae a4 3e 00 c3 6d 3e
       0.23344629 0.21029212 0.32164645 0.23218918
000020 66 56 a7 3e ae 19 57 3e 1a 4f 64 3e d4 0d f5 3e
       0.32683104 0.2100589 0.222958 0.47862113
000030 04 26 8d 3e bb 3d 55 3e 2f a0 be 3e 70 24 a8 3e
       0.27568066 0.2082433 0.37231585 0.328403
000040 1c aa 4f 3e 5b 8b a8 3e 54 c9 a9 3e 0b 6f 84 3e
       0.20279735 0.3291882 0.33161414 0.2586597
000050 7a 02 a5 3e ad dd 8d 3e ca 03 6a 3e f1 a0 7c 3e
       0.32228452 0.27708188 0.22853008 0.2467077
000060 27 47 c6 3e 74 f0 77 3e 5f e0 89 3e 98 44 58 3e
       0.3872616 0.2421282 0.26928994 0.21119916
000070 97 55 5f 3e b3 0b a5 3e 91 4e 92 3e 8a ab ea 3e
       0.21809994 0.32235488 0.28575566 0.45834
000080 01 e4 90 3e 0d 84 87 3e be ea 9d 3e 4e 7a a5 3e
       0.28298953 0.26467934 0.30843157 0.32319874
000090 fa 3e 42 3e b1 52 43 3e 7b 41 95 3e 1b 83 9c 3e
       0.18969336 0.19074513 0.2915152 0.30568776
0000a0 93 43 a1 3e 20 e3 8e 3e f5 36 a9 3e 26 ad ae 3e
       0.31496868 0.27907658 0.3304974 0.34116477
0000b0 f0 27 ac 3e 0c eb c2 3e 92 e8 86 3e 2b 72 b6 3e
       0.3362422 0.38069952 0.26349312 0.35633978
0000c0 d4 a3 66 3e 72 57 71 3e 97 65 cd 3e 59 53 5d 3e
       0.22523433 0.23568514 0.4011657 0.21613826
0000d0 a6 72 8d 3e 58 d3 8c 3e 5a d5 84 3e 6e 51 a9 3e
       0.27626532 0.27504992 0.25944024 0.33069938
0000e0 04 7e 95 3e 4a e6 85 3e ab 03 96 3e c3 5f a4 3e
       0.29197705 0.2615226 0.29299673 0.3210431
0000f0 12 a5 64 3e 07 c4 89 3e 92 2f bd 3e b7 98 a3 3e
       0.22328594 0.2690737 0.36950356 0.3195245

fc3.weight f4 [57, 64]
000000 58 86 67 be 75 6c 16 3b b3 7c c9 be d0 bc ea bd
       -0.22609842 0.002295283 -0.3935295 -0.114617944
000010 34 a9 48 be c8 5e d2 bd 5a 22 f4 bd d6 db 4c be
       -0.19595796 -0.10271984 -0.119206145 -0.20005736
000020 f2 b0 32 3c c1 bd 03 3e 09 d1 44 be a2 d7 86 be
       0.010906445 0.12865354 -0.19220366 -0.2633639
000030 68 c7 b0 3c a1 d4 de bd fc d3 d3 bd 95 b0 3f bd
       0.02157946 -0.108803995 -0.10343167 -0.04679926
000040 71 10 b5 3d 80 9a 9a be 7d a3 87 3d 54 53 8f 3d
       0.088410266 -0.30196 0.0662298 0.069983155
000050 33 e5 b1 bd 81 4c 08 3e 28 fe 98 be 31 00 07 be
       -0.086862944 0.13310434 -0.29881406 -0.13183667
000060 5a 0f 89 3d a3 2d ff 3c f9 bc 47 be 62 80 1f be
       0.06692381 0.031149691 -0.19505681 -0.15576318
000070 4e aa 30 be df 45 2a be 7a 39 99 3b 34 32 a5 3d
       -0.17252466 -0.16628216 0.004676041 0.08066216
000080 3e 41 2e bc a6 3e 42 be e0 9c 9c 3d 22 67 29 3e
       -0.010635672 -0.18969211 0.07647109 0.16543248
000090 b9 76 67 be c4 be c8 bd a3 88 76 be 14 66 c4 be
       -0.22603883 -0.09802011 -0.2407556 -0.3835913
0000a0 fc 10 19 be bb a0 39 3e a5 cb bc 3d 03 71 d8 bd
       -0.14947885 0.1812772 0.092185296 -0.1056843
0000b0 e9 c5 6c be a0 10 d4 bd 17 c5 04 3e 9c f5 36 3e
       -0.23122372 -0.103547335 0.12965809 0.1786713
0000c0 6a 90 8b be 6f 71 40 bd 66 85 72 be e4 2b 18 3e
       -0.27258617 -0.04698318 -0.236837 0.14860493
0000d0 93 31 95 be e8 05 25 3e c2 bc 0f be a4 da 85 be
       -0.29139385 0.16115534 -0.14036849 -0.26143372
0000e0 71 59 50 be bf 45 82 be 37 ff 06 be de cc 76 be
       -0.20346619 -0.25443837 -0.13183294 -0.24101588
0000f0 c2 e5 36 be d1 9b 3f 3e 7e 74 82 be d4 30 9c be
       -0.17861083 0.18711783 -0.254795 -0.30506003
000100 42 d7 19 bc cd d1 84 be 6d 0d 26 be e9 4f 15 3e
       -0.0093897 -0.25941315 -0.16216059 0.14581265
000110 1d 18 8c be 67 e4 89 bd 77 53 a7 be e1 f7 c8 bd
       -0.27362147 -0.067330174 -0.32680866 -0.09812904
000120 58 e2 97 3d bb d7 fb bb 61 9b 76 bd fe a1 88 be
       0.074162185 -0.007685629 -0.060206775 -0.2668609
000130 73 5b df bd 92 b4 64 be b5 a2 b1 bd 14 8a 3b be
       -0.109061144 -0.22334507 -0.08673612 -0.18314391
000140 0a 46 2a be 6c 38 80 be 15 b6 1b 3c 0e e8 55 be
       -0.1662828 -0.25043046 0.009503861 -0.20889303
000150 d0 eb e2 be 0f dc 67 bd 37 b2 89 be 6e c0 38 3e
       -0.44320536 -0.05660635 -0.2689378 0.18042156
000160 ae 37 95 be 40 6e 11 bd a2 24 95 be 7f 6b c8 bd
       -0.29144043 -0.035505533 -0.2912951 -0.09786128
000170 ce f3 10 3e de 3e 40 bd 79 a4 ff 3b 1e 67 9d 3d
       0.14155504 -0.046934955 0.007801589 0.07685684
000180 82 19 95 be 79 7b bb 3a 4a 6f 36 3e 27 87 4a be
       -0.29121023 0.0014303765 0.17815891 -0.19778119
000190 df 71 3d be 3e b4 95 3d e1 b8 52 be 91 93 48 be
       -0.1850047 0.07309769 -0.20578338 -0.19587542
0001a0 0e 64 0e be 0b 41 f2 3c 3b 9c 32 3e 83 4d ee 3d
       -0.13905355 0.02957203 0.1744241 0.11635878
0001b0 c1 2d 05 bd 45 18 3e be 4b fc 79 be 59 b1 00 3e
       -0.032514337 -0.18563946 -0.24412648 0.12567653
0001c0 1e 0d f9 3b 82 0c 6f be d7 dd aa be 1e 2f ea bc
       0.0076004406 -0.23344615 -0.33372375 -0.02858692
0001d0 c9 7f db bd b3 46 5d 3e cc 5b 35 3e 94 be 21 be
       -0.107177325 0.21609001 0.17710799 -0.15795356
0001e0 f9 eb 56 be cd 4a 48 be 3e 9e 32 bd 74 1c ac 3b
       -0.20988454 -0.19559784 -0.043607943 0.0052524153
0001f0 35 96 b9 bd 2a eb 41 3d 81 1b ed 3d 15 11 23 3d
       -0.09061853 0.04734341 0.115775116 0.039811213
000200 45 bc da 3a 71 77 70 be a1 59 09 3e 03 b9 b8 bd
       0.0016688189 -0.23483063 0.13413097 -0.09019663
000210 92 f3 b8 bc 6d c5 be bd df 94 8e bd 6e e8 03 be
       -0.02257708 -0.09315 -0.06961989 -0.12881634
000220 91 25 bd 3d 7b 09 61 3e c1 5f d2 3c 5d 79 f9 bd
       0.09235681 0.21976273 0.025680425 -0.12181351
000230 65 94 4d be 69 4e 9d be f4 5a ed 3d af cd 16 be
       -0.2007614 -0.30723885 0.115896136 -0.147269
000240 ac 73 31 be 52 fd 90 be 62 48 7e be 55 e5 a8 3d
       -0.17329282 -0.28318268 -0.248323 0.082468666
000250 84 b8 88 be e0 2f dc 3b bb da 44 be 50 a2 3a 3e
       -0.26703274 0.0067195743 -0.19224064 0.1822598
000260 ed ef 45 be 67 95 73 be 3f 71 28 be 9a 16 fe bc
       -0.19329806 -0.23787461 -0.1644945 -0.031016637
000270 5f 92 3c bd 1f 54 8f be 67 17 2d bd 25 5c 24 be
       -0.046038028 -0.27993867 -0.042258646 -0.16050775
000280 82 20 92 be e2 0b 2c be 86 85 3a bd 37 74 9e 3a
       -0.28540426 -0.16801408 -0.045537494 0.0012089078
000290 8a 0d 25 be 28 7b a0 bb b5 f9 7a be 0b 3e 0b 3c
       -0.16118446 -0.004897494 -0.24509318 0.008498679
0002a0 e8 5d 87 3d 41 d1 e9 3c 1b a1 d9 3d 7c 91 ea bd
       0.06609708 0.028542163 0.106264316 -0.1145353
0002b0 18 65 37 bd c3 95 56 be e9 03 47 3e 67 6e fa bd
       -0.044774145 -0.20955567 0.19435085 -0.12228089
0002c0 56 70 16 3e 4d d4 92 be d9 6e 60 be 54 00 4d be
       0.1469129 -0.28677598 -0.21917285 -0.20019656
0002d0 58 58 83 be 0d 0c 39 bc 65 80 4b bd 95 c4 67 be
       -0.25653338 -0.011294377 -0.049682993 -0.22633584
0002e0 ba e5 80 be 86 19 ff bd 46 0e 8e be 2d aa 26 be
       -0.25175267 -0.1245604 -0.27745265 -0.16275854
0002f0 49 e3 5e 3e 13 81 02 3e e7 e5 f2 3d 35 d1 d8 bd
       0.2176639 0.1274455 0.11860257 -0.10586778
000300 fa 66 48 be 5d 2d ee bd 29 5d 58 be a7 be cf 3d
       -0.19570532 -0.11629746 -0.21129288 0.10143786
000310 bf 47 5e 3d 8d a9 1a be 44 6a d9 bd 11 0b 5f be
       0.05426764 -0.15103741 -0.10615972 -0.21781565
000320 3f c9 1d be ba 0b 8c be ef e5 8d be 2f fe 93 3c
       -0.154088 -0.27352697 -0.27714488 0.01806554
000330 85 1d fb bd c3 53 47 be 16 96 95 bd fa 52 04 be
       -0.1226149 -0.19465546 -0.07304017 -0.12922278
000340 65 0c 38 be e0 32 c7 bd 1d 48 1d bc 96 48 ce 3d
       -0.17973478 -0.097265005 -0.009599713 0.100724384
000350 1a d7 13 3e 14 f4 89 3d 95 d3 2f be d9 52 3b bd
       0.14437523 0.06736007 -0.17170556 -0.045733307
000360 d8 f4 0a be 29 76 0f be c2 05 a4 be 04 53 ad be
       -0.13569963 -0.14009918 -0.32035643 -0.33852398
000370 1e d8 bf 3d 71 95 29 be 3b 32 cd 3d ef ef 16 be
       0.09367393 -0.16560914 0.10019346 -0.14739965
000380 3c 1a a2 be f7 79 8a be 15 ee b4 bc 74 c0 0e be
       -0.3166064 -0.27046177 -0.022086183 -0.13940603
000390 d0 38 6e be 93 0a fc 3d 4f cd 47 bb c2 4f 0d 3e
       -0.2326386 0.12306704 -0.0030487364 0.13799956
0003a0 10 9b 5c bc b6 25 a2 be e8 dc 19 3e 39 47 75 3d
       -0.013464704 -0.31669396 0.15025675 0.059882376
0003b0 af 8f 44 be 77 04 ef bc 81 68 8f be cd 61 1c be
       -0.19195436 -0.029176934 -0.28009418 -0.15271683
0003c0 a9 15 30 3e 5f 91 c8 3d 1e 6d 17 be e6 d5 d6 3c
       0.17195763 0.09793352 -0.14787719 0.026225042
0003d0 d6 f1 6a bd e4 45 4f be 2f 49 46 be 15 62 f2 3d
       -0.05735954 -0.20241505 -0.19363855 0.11835114
0003e0 35 8f 3e be b5 5b 75 3d f3 39 56 bd f7 aa 3b be
       -0.18609317 0.05990191 -0.05230136 -0.18326937
0003f0 da ca 3b be 6c e1 0c be 0f 2d 47 3e 51 9d 63 be
       -0.183391 -0.13757867 0.19450782 -0.2222798

fc3.bias f4 [57]
000000 87 31 9b 3d 64 43 d7 bd fe cf 0e 3e 51 04 14 3e
       0.07577806 -0.105109006 0.1394653 0.14454772
000010 9f 18 a4 3c 4a 62 d9 bd 04 60 93 bd 27 54 d9 3c
       0.020031272 -0.1061445 -0.07196048 0.026529385
000020 cc 38 c9 bd 15 ea 38 3d 04 df 82 3c a4 f6 b7 3d
       -0.09825286 0.045145113 0.015975483 0.0898259
000030 b2 fc 95 bd 91 c8 07 3d 84 a5 3f 3d 05 ec 4f bc
       -0.073235884 0.03315026 0.046788707 -0.012690549
000040 b6 bf 98 3d 99 b4 b9 bd 74 7d df 3c 78 8e dd 3c
       0.07458441 -0.090676494 0.0272815 0.027045473
000050 d1 38 dc 3d f1 7f ac 3d 04 14 da 3c fa 6b fc bb
       0.10753024 0.084228404 0.026620872 -0.0077033015
000060 f3 fa 1f bd b7 c5 53 bc c5 a3 a1 bd 7a 4c fa 3d
       -0.039057683 -0.012925557 -0.07892565 0.12221618
000070 59 db 48 3d c4 8e fd 3d 53 c0 3a bd d0 16 79 bd
       0.04903731 0.12380746 -0.04559357 -0.06081277
000080 73 7b 60 bd ba 58 c6 3c 4f 5e 9f bd aa f6 84 3d
       -0.05480523 0.02421223 -0.0778166 0.0649236
000090 e1 07 3e bc 62 6a a0 bd 56 e7 96 3c 51 1c b7 bd
       -0.011598558 -0.07832791 0.018420856 -0.08940948
0000a0 c0 e1 a1 3d 03 10 e0 bb ad eb ba bd 75 f1 02 3e
       0.079043865 -0.0068378462 -0.09126983 0.12787421
0000b0 49 b1 d5 3d cf 50 f3 bd 47 78 90 3d 83 46 9f bd
       0.10434205 -0.118806474 0.07054191 -0.07777121
0000c0 0d a0 b0 3d 8f ce d4 bc 11 69 3f 3d 24 93 7d bc
       0.08624277 -0.025977401 0.04673106 -0.015476976
0000d0 70 94 94 3c 08 1d d7 3d 58 68 31 bd a4 8f 4d ba
       0.018137187 0.10503584 -0.0433124 -0.00078415335
0000e0 b5 53 60 3b
       0.003422958
