model.pth (torch, 80756 bytes, 6 tensors)

net.0.weight f4 [64, 207]
0.17414652 -0.09041629 -0.13195923 0.12564914 0.07258686 0.052041035 0.059223447 0.15240918
0.1148084 0.16476187 0.09785938 0.17829669 0.23729622 0.05849814 0.18778789 0.14470369
0.12672742 0.1590883 0.019274728 0.18056913 0.14409888 0.096153684 0.22965047 0.14715226
0.17089285 0.1875507 0.16183089 0.09098833 0.16970885 0.23126857 0.13417359 0.18281825
0.053080447 0.11621658 -0.083881676 0.0569706 0.03715371 0.22780475 0.084055625 0.10826028
0.05654982 0.016717868 -0.23045348 -0.13208354 0.23413232 -0.21788496 0.17801102 -0.09512217
0.54015976 -0.0156121785 0.5066575 0.177637 -0.049739435 0.09375647 0.20243984 -0.028957736
0.010203073 0.4389479 -0.07183641 -0.36073482 0.0562667 -0.13394716 0.09566643 0.23805691
-0.21873125 -0.13170972 0.3298088 0.034274418 -0.044411067 -0.19133417 0.20733993 -0.11113449
0.06817585 0.1599912 0.32868776 0.18079202 0.061855033 0.25844082 0.07213408 -0.21494775
-0.092386484 0.29531223 -0.27218693 -0.18396884 0.037209854 0.11023537 -0.20395426 0.26624364
0.20370544 -0.16269688 0.10564691 0.0054349354 0.12917002 -0.16272154 0.07762973 -0.14154413
-0.042604186 0.18126161 0.13692735 0.067188144 -0.02176129 0.35046273 -0.15923089 0.2639421
0.17319651 0.23457737 0.31179208 0.21298015 -0.2929728 -0.050881784 0.10602172 -0.021129109
0.21112029 0.20055811 -0.26223946 0.16120203 -0.22266392 -0.06719511 -0.14385614 -0.118506946
-0.11749977 0.12150303 0.16974013 -0.32604337 0.026199203 -0.08997341 -0.050535694 -0.13290854
-0.0033679197 -0.16171941 -0.005648397 -0.015645023 0.07585829 0.22438854 0.26463908 -0.027237622
0.07860651 -0.24246132 0.009588397 -0.07497572 0.089081645 0.1740322 -0.26035002 -0.30007017
0.023053834 -0.13491891 0.1997093 0.24364771 0.14911014 0.04517594 -0.3008652 -0.09935203
0.15521869 -0.11716055 0.18528049 -0.02220634 -0.18144561 -0.022507127 0.14780883 0.24193946
0.19424595 -0.014186427 0.5828561 -0.1523243 0.02589196 0.0347071 -0.13005485 -0.022466822
-0.20797886 -0.107562445 0.0069371294 -0.2041227 -0.097805455 -0.20159498 -0.10781596 0.13641942
-0.11472019 0.31371942 -0.089580126 -0.19248882 -0.002970837 0.24417157 -0.019768551 -0.15294029
-0.16106458 0.11455525 0.24748808 0.2536834 0.48720038 -0.15074301 -0.025566585 -0.07225233
-0.2894768 0.15023622 0.3286203 -0.0043036174 -0.009872296 0.4824557 -0.029301558 0.005881401
-0.15102544 0.20233308 -0.049962994 -0.08445424 0.28353766 0.100493826 -0.19188389 0.084594846
-0.19457725 0.054707646 -0.2353941 0.040781483 0.05607127 -0.04610567 0.15361042 0.050687898
0.13336594 0.11006326 0.009890299 0.07694254 -0.23249117 0.07304072 -0.04049801 0.051850304
0.100288145 -0.00330651 0.067926235 0.004016501 0.04647647 -0.057726357 0.14245522 -0.03987472
-0.08955465 0.06362796 0.058218136 0.039872475 0.105988674 0.06795328 0.15455364 0.11525063
0.045121126 -0.19958799 0.09579146 -0.10811442 -0.011821651 0.067152224 0.036534067 0.12914509
0.12379598 0.03914241 0.08660649 0.098092645 -0.1120501 -0.04171668 0.0233061 -0.24552353
00000000: 7753 323e 2d2c b9bd 5220 07be 2baa 003e
00000010: 6ba8 943d fb28 553d 4994 723d 2711 1c3e
00000020: ab20 eb3d 56b7 283e 806a c83d 6893 363e
00000030: c8fd 723e bf9b 6f3d 784b 403e 342d 143e
00000040: d5c4 013e 0be8 223e 09e6 9d3c 1de7 383e
00000050: a88e 133e 39ec c43d 7e29 6b3e 15af 163e
00000060: 89fe 2e3e 4a0d 403e ffb6 253e 1758 ba3d
00000070: 28c8 2d3e abd1 6c3e cd64 093e b534 3b3e
00000080: e26a 593d f502 ee3d 28ca abbd 015a 693d
00000090: 7d2e 183d a645 693e 5b25 ac3d 91b7 dd3d
000000a0: c9a0 673d e9f3 883c fffb 6bbe e840 07be
000000b0: 62c0 6f3e 3c1d 5fbe 8548 363e 6acf c2bd
000000c0: e947 0a3f 39ca 7fbc 4eb4 013f 79e6 353e
000000d0: 94bb 4bbd 6403 c03d 644c 4f3e c638 edbc
000000e0: ca2a 273c c7bd e03e f81e 93bd 3cb2 b8be
000000f0: e977 663d 7229 09be c3ec c33d 31c5 733e
00000100: 16fb 5fbe eade 06be b3dc a83e 5563 0c3d
00000110: 61e8 35bd 1bed 43be eb50 543e 7b9a e3bd
00000120: c89f 8b3d bcd4 233e c349 a83e 8b21 393e
00000130: b45b 7d3d 5b52 843e 08bb 933d 431b 5cbe
00000140: 2035 bdbd 2a33 973e 165c 8bbe 5462 3cbe
00000150: 5c69 183d 15c3 e13d 63d9 50be 1651 883e
00000160: 2998 503e 039a 26be 685d d83d 8b17 b23b
00000170: 2545 043e 7aa0 26be 56fc 9e3d f2f0 10be
00000180: ba81 2ebd a59c 393e af36 0c3e f099 893d
00000190: bc44 b2bc da6f b33e 6c0d 23be 6b23 873e
000001a0: 6d5a 313e 0d35 703e 36a3 9f3e 7817 5a3e
000001b0: 8800 96be 6b69 50bd ea21 d93d f416 adbc
000001c0: eb2f 583e 1b5f 4d3e 4044 86be 2512 253e
000001d0: 0302 64be 979d 89bd 064f 13be c5b3 f2bd
000001e0: b8a3 f0bd 95d6 f83d 5bd0 2d3e 28ef a6be
000001f0: b69f d63c fb43 b8bd 84fe 4ebd 2d19 08be
00000200: 51b8 5cbb c699 25be 3016 b9bb fe29 80bc
00000210: 975b 9b3d 1cc6 653e c67e 873e 6f21 dfbc
00000220: 73fc a03d c847 78be a718 1d3c df8c 99bd
00000230: 7070 b63d 7f35 323e 994c 85be cca2 99be
00000240: 65db bc3c 2f28 0abe 9880 4c3e c97e 793e
00000250: 54b0 183e 680a 393d 010b 9abe 1479 cbbd
00000260: a6f1 1e3e dff1 efbd 2bba 3d3e 12ea b5bc
00000270: e1cc 39be de60 b8bc 335b 173e fabe 773e
00000280: 69e8 463e 306e 68bc 0f36 153f e7fa 1bbe
00000290: 601b d43c 0829 0e3d 192d 05be 570c b8bc
000002a0: 69f8 54be b349 dcbd dc50 e33b 8b05 51be
000002b0: 3a4e c8bd ea6e 4ebe 9dce dcbd 88b1 0b3e
000002c0: 6bf2 eabd d59f a03e c975 b7bd ca1b 45be
000002d0: 60b2 42bb 1d08 7a3e a8f1 a1bc 619c 1cbe
000002e0: 1dee 24be f19b ea3d 846d 7d3e cae2 813e
000002f0: 5472 f93e 605c 1abe 0471 d1bc 08f9 93bd
00000300: 4e36 94be 86d7 193e ec40 a83e 5c05 8dbb
00000310: 69bf 21bc 6f04 f73e d209 f0bc c4b8 c03b
00000320: 6aa6 1abe 6730 4f3e ffa5 4cbd 58f6 acbd
00000330: d92b 913e b5cf cd3d 367d 44be 1040 ad3d
00000340: 423f 47be 2015 603d 270b 71be 7c0a 273d
00000350: fdaa 653d 4dd9 3cbd 0d4c 1d3e 1d9e 4f3d
00000360: 1591 083e d968 e13d ec0a 223c 0d94 9d3d
00000370: 2a12 6ebe 5f96 953d 3ee1 25bd fc60 543d
00000380: df63 cd3d 08b2 58bb e91c 8b3d da9c 833b
00000390: 1c5e 3e3d 7972 6cbd c8df 113e ad53 23bd
000003a0: 6e68 b7bd 604f 823d 2476 6e3d 5251 233d
000003b0: 9710 d93d 172b 8b3d 4f43 1e3e 8608 ec3d
000003c0: eed0 383d cb60 4cbe 502e c43d 186b ddbd
000003d0: 99af 41bc 1b87 893d bfa4 153d 9c3e 043e
000003e0: bf88 fd3d cb53 203d be5e b13d cce4 c83d
000003f0: 867a e5bd 1cdf 2abd 6fec be3c 856a 7bbe

net.0.bias f4 [64]
0.2151887 0.03791903 0.09805115 0.11397918 0.18674591 0.23722365 0.0701632 0.13489804
0.22485459 0.2689987 0.18787964 0.23940022 0.3219978 0.03643846 0.21225242 0.26720577
0.19861111 0.2208299 0.2732348 0.22894253 0.33615375 0.1873045 0.06255118 0.20719653
0.237239 0.10865921 0.16336755 0.22273113 0.19790679 0.20583068 0.22515577 0.14023206
0.26587775 0.14291175 0.18953472 0.18739165 0.14564994 0.16387893 0.28607842 0.16129614
0.2469183 0.16040973 0.25624332 0.09827035 0.2165657 0.23273298 0.31167644 0.17525819
0.16460311 0.2309755 0.13553387 0.15759604 -0.026034096 0.16989553 0.18980472 0.20727135
0.221578 0.31992593 0.21168005 0.107248135 0.21135324 0.24177662 0.20042351 0.18598567
00000000: 6d5a 5c3e fc50 1b3d 0bcf c83d eb6d e93d
00000010: 523a 3f3e c2ea 723e b9b1 8f3d b622 0a3e
00000020: 4840 663e 33ba 893e 8563 403e 5525 753e
00000030: e5dc a43e 7f40 153d b358 593e 32cf 883e
00000040: b660 4b3e 3c21 623e 6fe5 8b3e e96f 6a3e
00000050: 581c ac3e c0cc 3f3e d51a 803d 542b 543e
00000060: c8ee 723e b888 de3d d349 273e a113 643e
00000070: 14a8 4a3e 47c5 523e 3c8f 663e fe98 0f3e
00000080: 2121 883e 7557 123e 6415 423e 99e3 3f3e
00000090: 4225 153e e1cf 273e df78 923e d12a 253e
000000a0: 27d8 7c3e 7342 243e 5332 833e f741 c93d
000000b0: 66c3 5d3e 8e51 6e3e 0e94 9f3e e276 333e
000000c0: b88d 283e d784 6c3e 64c9 0a3e db60 213e
000000d0: 7545 d5bc 18f9 2d3e 2b5c 423e f13e 543e
000000e0: 58e5 623e 55cd a33e a8c2 583e e9a4 db3d
000000f0: fc6c 583e 4a94 773e d23b 4d3e 0773 3e3e

net.3.weight f4 [64, 64]
-0.0021526709 0.2082022 -0.56044114 0.5116996 -0.5207481 -0.2855903 0.1529398 0.2672633
0.28389663 -0.16148086 0.08845553 -0.75999796 0.07041672 0.26793846 -0.03769846 0.26583737
0.5663177 0.5118969 0.109109476 0.16117561 -0.28644174 0.18103655 0.39052036 -0.035716306
0.001970885 -0.10553354 -0.39346668 -0.13725682 0.19769683 0.42917746 0.39589617 0.16727993
-0.14482187 -0.3822612 0.16666101 0.67637676 -0.21150881 -0.16752718 -0.39619884 1.0393809
-2.8901339e-05 0.3264394 -0.4532693 -0.12923716 0.6025507 -0.15079503 -0.09182698 -0.05637651
-0.05793781 -0.6443782 -0.14071609 -0.09032554 0.12883846 -0.7462763 -0.02619927 -0.08120659
-0.12855273 0.076474875 0.42813936 0.13059312 -0.32379436 0.16497776 0.40089163 0.07293116
0.6161297 -0.2176724 -0.05340815 0.18098818 0.18520044 0.5514916 0.07580749 0.38141504
-0.2752662 -0.18812047 -0.24548787 -0.70522547 -0.029922852 0.15176636 0.01690996 0.011746904
0.39382508 0.26999733 0.26394764 0.011086976 0.27747124 -0.018792162 0.1627716 0.87994057
-0.26854768 0.035991635 0.14904627 -0.2069849 0.16030756 -0.07836511 0.25233424 -0.016032107
-0.13580981 0.44464612 0.48552975 0.61876225 0.072440185 0.7503079 0.34761322 0.6629487
-0.005543532 0.7792545 0.06034901 -0.2618683 0.3748328 0.06585525 -0.03975731 0.062495243
0.14652054 0.008040495 -0.640334 -0.05453926 -0.15486512 -0.27701896 -0.68716997 0.43039805
0.10654919 -0.009269562 -0.3542013 0.03995041 -0.21819092 0.03549769 -0.09164567 0.008354117
0.68483275 0.11255368 -0.13157146 -0.18332721 0.31852448 0.41213864 0.20624277 -0.007985818
-0.11922758 -0.184124 -0.06665961 0.33693966 -0.15145317 0.002063422 -0.27887207 -0.24924484
-0.4351392 -0.19305097 -0.030567346 0.1682202 0.015185408 -0.047866467 0.04760361 0.23976687
-0.14639606 0.25795633 0.4469115 -0.053588334 -0.10117828 -0.56368256 -0.103186265 -0.12728398
-0.06255373 0.39345798 0.08753718 -0.51341236 -0.053374685 0.39129925 0.013439691 -0.28112748
0.31474873 0.21907292 0.53960747 0.36129272 -0.22112204 -0.255371 0.39134935 0.6137131
0.4776097 0.34593555 -0.36537325 0.17699257 0.0064663533 -0.018079227 -0.28096518 0.4941542
0.019026844 0.009573188 -0.33480188 0.042292513 0.13847828 0.23949544 -0.60737735 -0.08019357
0.16194275 0.014426939 -0.64629155 -0.12100238 0.111889765 0.6945183 -0.07036613 0.5438968
0.3767985 0.04843417 0.22655047 -0.14960697 0.2869882 -0.12235301 -0.049569007 0.11666196
-0.1820716 0.23648484 -0.014457205 0.89292204 0.12020003 0.8832016 -0.106605045 0.068884805
0.1918483 -0.29591513 -0.28948674 0.38749647 0.25161254 0.37798437 0.21954323 -0.10216104
-0.08279782 -0.14167924 -0.036312398 0.03773769 -0.03946616 -0.099402964 0.1333394 -0.26230013
0.04898078 -0.06732521 0.1651426 -0.0148917055 0.2996935 0.2368907 0.10178912 0.42364737
0.4790863 -0.022793641 -0.83794683 0.60018766 -0.24332936 -0.022964645 -0.29680434 0.6475624
-0.040034644 0.39107403 -0.14633898 -0.4701225 -0.16103262 0.26136902 0.02342984 -0.47059566
00000000: d313 0dbb f532 553e 1279 0fbf bffe 023f
00000010: bf4f 05bf e438 92be 409c 1c3e bcd6 883e
00000020: e65a 913e 3d5b 25be 2c28 b53d 3a8f 42bf
00000030: a436 903d 3b2f 893e b369 1abd d61b 883e
00000040: 32fa 103f ad0b 033f ca74 df3d 380b 253e
00000050: 7ea8 92be a561 393e 49f2 c73e 434b 12bd
00000060: f729 013b f821 d8bd 7774 c9be 0d8d 0cbe
00000070: 0a71 4a3e 26bd db3e e7b2 ca3e 6e4b 2b3e
00000080: 2f4c 14be bdb7 c3be 2fa9 2a3e 0727 2d3f
00000090: c495 58be 3f8c 2bbe 93da cabe 6f0a 853f
000000a0: 2771 f2b7 1123 a73e ea12 e8be bf56 04be
000000b0: c340 1a3f 036a 1abe c90f bcbd 0eeb 66bd
000000c0: 3250 6dbd f8f5 24bf e117 10be 99fc b8bd
000000d0: 3bee 033e f70b 3fbf da9f d6bc a44f a6bd
000000e0: 54a3 03be dc9e 9c3d 1535 db3e 34ba 053e
000000f0: 60c8 a5be eeef 283e ab41 cd3e ef5c 953d
00000100: adba 1d3f 83e5 5ebe 81c2 5abd f754 393e
00000110: 2fa5 3d3e 8e2e 0d3f f540 9b3d d548 c33e
00000120: b1ef 8cbe a7a2 40be 2c61 7bbe a889 34bf
00000130: c520 f5bc a468 1b3e c286 8a3c 1676 403c
00000140: 71a3 c93e 173d 8a3e 2524 873e 26a6 353c
00000150: b610 8e3e 05f2 99bc 99ad 263e c943 613f
00000160: 157f 89be f76b 133d 969f 183e daf3 53be
00000170: aa27 243e e37d a0bd f431 813e c455 83bc
00000180: ba11 0bbe a8a8 e33e 5b97 f83e 3467 1e3f
00000190: 855b 943d 2e14 403f 5cfa b13e 02b7 293f
000001a0: 84a6 b5bb 397d 473f 8630 773d 9a13 86be
000001b0: 16ea bf3e 1edf 863d 90d8 22bd 03fb 7f3d
000001c0: 7b09 163e 48bc 033c eeec 23bf 8f64 5fbd
000001d0: f694 1ebe 6ed5 8dbe 5fea 2fbf 225d dc3e
000001e0: 7636 da3d 5cdf 17bc df59 b5be 0ba3 233d
000001f0: 716d 5fbe 0766 113d bab0 bbbd b5df 083c
00000200: 3351 2f3f 8b82 e63d abba 06be 21ba 3bbe
00000210: a415 a33e d603 d33e 4e31 533e f3d6 02bc
00000220: 972d f4bd 008b 3cbe d584 88bd 5b83 ac3e
00000230: 8a16 1bbe 7a3a 073b 52c8 8ebe 0a3a 7fbe
00000240: 91ca debe 27af 45be 5f68 fabc eb41 2c3e
00000250: 38cc 783c a10f 44bd 01fc 423d 7285 753e
00000260: d9e8 15be da12 843e 96d1 e43e 717f 5bbd
00000270: 8f36 cfbd 804d 10bf 5253 d3bd bb56 02be
00000280: 2c1c 80bd 5373 c93e b146 b33d fe6e 03bf
00000290: 6a9f 5abd 6058 c83e 2632 5c3c f1ef 8fbe
000002a0: bf26 a13e a754 603e b723 0a3f 5cfb b83e
000002b0: d16d 62be fdbf 82be f15e c83e 4d1c 1d3f
000002c0: 4289 f43e 771e b13e 3412 bbbe 8a3d 353e
000002d0: b4e3 d33b e31a 94bc abda 8fbe c801 fd3e
000002e0: 2fde 9b3c dcd8 1c3c 276b abbe ea3a 2d3d
000002f0: 40cd 0d3e 4b3e 753e 157d 1bbf 873c a4bd
00000300: 52d4 253e f85e 6c3c 5d73 25bf 19d0 f7bd
00000310: 7626 e53d f4cb 313f 1e1c 90bd d23c 0b3f
00000320: bceb c03e e962 463d d9fc 673e 9232 19be
00000330: 1ef0 923e 3794 fabd df08 4bbd 77ec ee3d
00000340: fa70 3abe 1529 723e eadd 6cbc 8a96 643f
00000350: 6f2b f63d 8019 623f bf53 dabd 7a13 8d3d
00000360: e173 443e 3082 97be 9b37 94be f065 c63e
00000370: 5cd3 803e 2b87 c13e f1cf 603e cf39 d1bd
00000380: e791 a9bd 5d14 11be 4fbc 14bd d692 1a3d
00000390: 45a7 21bd c893 cbbd 208a 083e 344c 86be
000003a0: 12a0 483d cde1 89bd 241b 293e 57fc 73bc
000003b0: 6d71 993e 7a93 723e d076 d03d 4fe8 d83e
000003c0: cd4a f53e bbb9 babc af83 56bf e6a5 193f
000003d0: 552b 79be 5a20 bcbc bdf6 97be a6c6 253f
000003e0: 5efb 23bd db3a c83e e3d9 15be e5b3 f0be
000003f0: bce5 24be 29d2 853e f0ef bf3c eaf1 f0be

net.3.bias f4 [64]
0.15881169 0.029235793 -0.120909534 -0.21121795 0.019271588 0.012834482 -0.048200317 -0.011174486
0.078554794 -0.08304967 -0.043657213 0.119906455 0.10645683 0.22821748 0.041782558 0.007601177
0.038351994 0.02674562 -0.03563077 0.092586495 -0.020665616 -0.11434327 -0.07743712 0.16528496
0.17350815 0.05563236 -0.0687924 0.030454814 0.1331182 0.04836394 0.008907743 -0.0798802
-0.005880075 0.19897401 -0.10306385 0.2914791 -0.029922457 0.14958191 0.23607358 0.17648578
-0.061040934 0.027538652 0.18261643 -0.03549176 -0.017140437 0.2637115 0.18596034 0.14081675
-0.06925199 0.3962208 0.14493428 -0.097431764 -0.105311066 0.40677625 0.2886279 0.045821033
0.028219892 0.0484536 0.17822537 -0.1807782 0.023998378 0.043234613 0.021054178 -0.00042899358
00000000: 889f 223e e77f ef3c 6b9f f7bd 8549 58be
00000010: 73df 9d3c b847 523c b26d 45bd 3115 37bc
00000020: 56e1 a03d f215 aabd e8d1 32bd 8491 f53d
00000030: 0a06 da3d d8b1 693e 3024 2b3d 4b13 f93b
00000040: fb16 1d3d a119 db3c 92f1 11bd fd9d bd3d
00000050: f04a a9bc ce2c eabd 5a97 9ebd 7640 293e
00000060: 1fac 313e c2de 633d 08e3 8cbd 607c f93c
00000070: 2350 083e 4419 463d c8f1 113c 3b98 a3bd
00000080: a5ad c0bb d8bf 4b3e 2413 d3bd c03c 953e
00000090: f11f f5bc 002c 193e 46bd 713e b0b8 343e
000000a0: 0f06 7abd bd98 e13c cdff 3a3e cf5f 11bd
000000b0: 1a6a 8cbc 3205 873e 636c 3e3e 4432 103e
000000c0: fdd3 8dbd 74dd ca3e a769 143e 4e8a c7bd
000000d0: 54ad d7bd fa44 d03e 09c7 933e d6ae 3b3d
000000e0: 672d e73c 4877 463d b680 363e ec1d 39be
000000f0: 3f98 c43c c716 313d d079 ac3c 8bea e0b9

net.6.weight f4 [21, 64]
0.004555822 0.11462035 -0.6101438 -0.55658376 0.29373524 -0.18381806 0.25334674 0.2546474
-0.54768187 -0.20062484 0.17590848 -0.6750122 0.29407507 -0.49748328 -0.56448364 -0.58115864
-0.5234648 -0.100717165 -0.65896106 -0.840368 -0.45176244 -0.12137055 -0.2587917 -0.7635092
0.22592752 -0.7737039 -0.48948532 -0.08215384 0.26435038 0.10087986 0.29940632 -1.0226417
-0.072884165 0.1752639 -0.7615878 0.12483423 0.14944203 0.2320244 -1.1534556 -0.59021974
0.25543386 0.092152186 0.23466685 -0.85912853 -0.7321919 -0.427645 0.3385453 -0.1922488
-0.9299342 0.15582785 -0.7237598 -0.22939152 -0.5166985 0.15446216 0.38259348 -0.33294854
0.26549682 -0.32030135 0.27130076 0.05505128 -0.93851626 -0.6362982 -0.4596781 0.13647173
-0.79332465 -0.20970763 0.3025865 -0.49758267 0.193282 -0.029363377 0.0077677984 0.22777265
-0.5936936 0.37093166 -0.06003339 -0.2642534 0.2445675 -0.95061207 -0.69657683 0.24829327
-0.6270399 -0.18039948 0.2961858 -0.35147735 -0.24108863 -0.63865215 0.26906633 -0.19053705
-0.63362443 -0.8995222 -0.15799771 0.21242054 -0.2938041 -0.48625827 0.16533542 -0.18232235
0.05976453 -0.22328301 -0.33822846 0.14921834 -0.49916416 0.1921874 0.08054371 -1.0937577
0.22926436 0.19099672 -0.8203141 -0.06720514 0.31106904 -0.01553974 -0.04873716 0.28973898
-0.84427583 -0.09313571 -0.34893343 0.09998971 -0.6476576 -0.67334276 -0.19657764 0.24553281
0.30464742 -0.650949 0.19883916 0.076561525 -0.8385377 -0.1022223 0.06223496 0.22309552
0.10689775 -0.13448857 -0.42029977 0.18007308 0.22715892 0.095125765 -0.36569753 0.28682408
0.16718718 0.1593329 -0.39842188 0.24607442 0.29143566 -0.755256 -0.14480537 0.24897683
0.05450203 0.31049502 -0.33381504 0.2814678 -0.14716133 -1.1026956 -0.15609154 0.39179578
-1.3125745 -1.0211489 -0.29497483 0.18925388 -0.16234815 -0.6970646 -0.5726278 -0.68244565
-0.42710105 0.17584255 -0.8721138 0.12676555 -0.26529536 -0.09484436 0.12609217 -0.45868582
-0.24661854 0.30134892 -0.46817884 0.12406068 -0.23995854 0.19227132 -0.37783507 -0.041053094
-1.0229723 -0.096629895 0.14912155 -0.13236982 0.24131829 0.18475284 -0.5054719 -0.7456487
0.23807749 -0.6149473 0.08937574 -0.42059243 -1.0754886 -0.4623949 -0.421587 0.11893671
-0.68197846 -0.4665143 -0.8142791 -0.025839346 0.14202824 -0.88747746 0.23687094 -0.6542234
-0.66756135 0.2018832 0.2608231 -0.8115012 -0.5008594 0.077309676 0.057962146 -0.4815007
0.17077939 -0.54629475 0.22516143 -0.032624546 0.20591128 0.2448468 0.20820935 0.03992732
0.14037892 0.106639974 0.18589236 0.0680947 -0.08236316 0.17829497 0.20070428 -0.47320876
0.10729871 -0.935438 0.15444075 -0.30927044 -0.10014189 -0.89322793 -0.89752144 0.16732389
0.05042311 0.10715814 0.16338113 -1.1545238 0.25294077 -1.14268 0.0805311 0.14579335
-0.119121075 -0.98461354 -1.041818 0.21242169 -0.2037024 -1.1933984 -0.10854313 0.17630233
0.124386825 0.35091367 -0.80663687 0.17876214 0.06771091 0.22606862 -0.3058959 -0.16455735
00000000: 0149 953b 13be ea3d 6232 1cbf 467c 0ebf
00000010: 7764 963e cd3a 3cbe aab6 813e 2561 823e
00000020: e134 0cbf 9970 4dbe 5a21 343e 99cd 2cbf
00000030: 0291 963e 21b6 febe 0082 10bf d0c6 14bf
00000040: ca01 06bf cd44 cebd acb1 28bf 5b22 57bf
00000050: 684d e7be 1f91 f8bd 5880 84be 5775 43bf
00000060: 8b59 673e 7511 46bf d29d fabe 4640 a8bd
00000070: ef58 873e 1a9a ce3d c94b 993e ece5 82bf
00000080: 4b44 95bd 6178 333e 6bf7 42bf 17a9 ff3d
00000090: 5507 193e ce97 6d3e 6fa4 93bf a418 17bf
000000a0: 3ac8 823e 49ba bc3d 824c 703e d9ef 5bbf
000000b0: ee70 3bbf 49f4 dabe cf55 ad3e dfdc 44be
000000c0: 2b10 6ebf 5691 1f3e 5248 39bf 9ce5 6abe
000000d0: 5a46 04bf 542b 1e3e 4be3 c33e 3b78 aabe
000000e0: 33ef 873e 8afe a3be efe7 8a3e 737d 613d
000000f0: 9a42 70bf 70e4 22bf ee5a ebbe 3fbf 0b3e
00000100: 5317 4bbf 99bd 56be 9eec 9a3e 28c3 febe
00000110: b7eb 453e 778b f0bc 0489 fe3b 3c3d 693e
00000120: 4efc 17bf c1ea bd3e 92e5 75bd 394c 87be
00000130: e76f 7a3e 505b 73bf dc52 32bf 9740 7e3e
00000140: b085 20bf a4ba 38be aaa5 973e d7f4 b3be
00000150: f0df 76be b57e 23bf 10c3 893e 251c 43be
00000160: 3635 22bf 1647 66bf 27ca 21be c584 593e
00000170: 7e6d 96be d8f6 f8be b04d 293e b6b2 3abe
00000180: a7cb 743d 4da4 64be 482c adbe b1cc 183e
00000190: 7292 ffbe c6cc 443e 1af4 a43d 4100 8cbf
000001a0: 47c4 6a3e a594 433e 1b00 52bf d9a2 89bd
000001b0: 7144 9f3e 659a 7ebc 9ea0 47bd ab58 943e
000001c0: 7622 58bf efbd bebd 67a7 b2be 68c7 cc3d
000001d0: e3cc 25bf 3160 2cbf a64b 49be f46c 7b3e
000001e0: bffa 9b3e 98a4 26bf 7e9c 4b3e 4acc 9c3d
000001f0: 68aa 56bf ed59 d1bd 16ea 7e3d 2773 643e
00000200: 35ed da3d 5fb7 09be 8831 d7be 1465 383e
00000210: 599c 683e 4cd1 c23d b53c bbbe 9bda 923e
00000220: 1e33 2b3e 2a28 233e f4fd cbbe effa 7b3e
00000230: 0e37 953e 7558 41bf dc47 14be c8f3 7e3e
00000240: 853d 5f3d 34f9 9e3e cee9 aabe 8c1c 903e
00000250: 76b1 16be 2125 8dbf 76d6 1fbe 7599 c83e
00000260: 7102 a8bf 02b5 82bf f106 97be c5cb 413e
00000270: 983e 26be d372 32bf bc97 12bf c2b4 2ebf
00000280: fdac dabe 1210 343e da42 5fbf d4ce 013e
00000290: cbd4 87be c33d c2bd 4e1e 013e ded8 eabe
000002a0: 9289 7cbe 684a 9a3e 23b5 efbe 8713 fe3d
000002b0: b1b7 75be c6e2 443e 9973 c1be 4a27 28bd
000002c0: c2f0 82bf e5e5 c5bd 52b3 183e f48b 07be
000002d0: 241c 773e d92f 3d3e 9b66 01bf d5e2 3ebf
000002e0: 96ca 733e 306d 1dbf a10a b73d e457 d7be
000002f0: 9ca9 89bf 06bf ecbe 40da d7be 1795 f33d
00000300: 2496 2ebf f6da eebe 9874 50bf 09ad d3bc
00000310: da6f 113e b931 63bf 4c8e 723e 2f7b 27bf
00000320: 4de5 2abf 78ba 4e3e 9b8a 853e 8bbe 4fbf
00000330: 5238 00bf 8954 9e3d b769 6d3d 4287 f6be
00000340: cbe0 2e3e f9d9 0bbf b890 663e 51a1 05bd
00000350: 68da 523e 1fb9 7a3e d534 553e d48a 233d
00000360: 7ebf 0f3e 0f66 da3d 915a 3e3e 3c75 8b3d
00000370: 04ae a8bd f592 363e 6c85 4d3e 6b48 f2be
00000380: 6dbf db3d dd78 6fbf b725 1e3e b258 9ebe
00000390: 3117 cdbd 96aa 64bf f7c3 65bf f456 2b3e
000003a0: 7788 4e3d ba75 db3d 624d 273e 70c7 93bf
000003b0: 7481 813e 5743 92bf 7ded a43d da4a 153e
000003c0: c0f5 f3bd a20f 7cbf 4b5a 85bf 1285 593e
000003d0: 5d97 50be 47c1 98bf dc4b debd 9988 343e
000003e0: 85be fe3d f5aa b33e c17f 4ebf 6c0d 373e
000003f0: 05ac 8a3d 887e 673e 639e 9cbe b981 28be

net.6.bias f4 [21]
0.14532815 -0.012488811 -0.03513269 -0.095133595 -0.3278102 -0.23305857 0.02182497 0.043118384
0.15977125 0.041150317 0.1570917 0.069417745 0.048850983 0.0037059875 0.08719035 0.0039099883
0.23505959 -0.08295178 -0.25835487 -0.08360605 0.19701993
00000000: e7d0 143e df9d 4cbc 4ce7 0fbd 67d5 c2bd
00000010: bdd6 a7be e8a6 6ebe 48ca b23c e79c 303d
00000020: 139b 233e 3c8d 283d a6dc 203e e42a 8e3d
00000030: f817 483d 27e0 723b db90 b23d 5c1f 803b
00000040: 76b3 703e 9fe2 a9bd 1747 84be a639 abbd
00000050: 98bf 493e
