model.pth (torch, 10804 bytes, 6 tensors)

l1.weight f4 [8, 159]
00000000: 3e00 a43d 85f2 b2bd 1b36 bbbe 9f94 cbbe
00000010: 4874 343f 8764 a93d 5dfe 73be 7e7b 133d
00000020: 2b48 28bf 4eed ef3d 86f0 17bf 124a 78be
00000030: e912 f0be fd54 7e3e ae2b 50bf 7f95 003e
00000040: fa4c 52be 3dc4 b23c 4e07 b53f 8ebf 23be
00000050: 36f8 a53f dd8b a1be 6c64 fc3d 3e96 aebf
00000060: 4069 793f 0f7b db3e d436 59bc cda7 873e
00000070: 79e9 ef3e 8a56 933f 0055 033f 4e4d 88bc
00000080: 055f a43e b3c4 84be e7cf a33d ccf0 623e
00000090: 386f afbe 5cc0 82be e726 20bf 0c6c 8f3d
000000a0: 3079 bc3e a1a7 353f dcfe 913e 9c80 9e3e
000000b0: 1e24 aa3d bbea 41bf 9ddf a4bc 683c 9abe
000000c0: 8154 d53d b931 3a3f a707 0cbd e8b6 75bf
000000d0: e70f f0be b82c e5be 8040 1ebe 2df4 c83d
000000e0: aade cdbe 444a 1bbe 3b5a bcbe 2d06 a1be
000000f0: fa27 913e 4158 d3be d5c1 0cbe a712 7f3e
00000100: e2e6 0a3f cde3 7f3f ebc7 cf3f d54f 833e
00000110: b577 a8be 6755 2bbf 152c 433e c8d5 5e3e
00000120: 8480 24bf 4b9b a13e c021 3a3d 0de7 ad3e
00000130: 586c f53e a837 22be dc05 57bf b341 dabe
00000140: 48a9 733f 605b 323d 7fdf f7be b767 53be
00000150: 8539 73bf d1df 393e ea25 e03c 84f4 a3bc
00000160: 0e31 80be 9a1f 103e 65ad 1c3f 6e28 80bd
00000170: cb9e 2abf 5738 1dbe f0fe dcbe 3756 b4bb
00000180: 22f3 423e 0acf b5be 5d1e 4fbf 9f8e a03e
00000190: b114 d03c 18e1 ea3c ea4d 1e3f 2249 cd3d
000001a0: 111d 7d3d 1016 053e b9b2 f13e f152 963e
000001b0: e2ec 743e 4a62 41bb c0bd e7be 390e f63e
000001c0: e4c6 fbbe 7fb5 d43e 8bf7 4dbc 4cc8 583f
000001d0: 6517 fd3d 6532 9c3e c1a1 be3e 3e2e 733e
000001e0: d20b 60be 939f 92be b2cc 223f b3da d23e
000001f0: 69cd eb3e e088 f83e e545 95bd d37e dabe
00000200: a2f0 833e c238 8f3e 029d e9bc 1695 003b
00000210: e122 40be e824 37bf eb52 20be 9e1a 8e3e
00000220: c34a 0bbd 0d67 1dbf 9146 7d3f 06f7 a93e
00000230: 4edd f8bc d8df dc3e 3a0b e83d 0163 10be
00000240: 477a dbbd 24ab 7c3e c8f0 fc3d 4422 4bbf
00000250: 6cf6 1e3f b104 2c3f 74d3 913b f190 7abe
00000260: 4898 e03e 35e5 c63e f05a d0be 2cb2 9fbe
00000270: f359 9ebf b232 34bf d8b3 32bf 38f0 2b3f
00000280: 15ac cabd f3ab 3c3e ab46 4fbe 686b cebe
00000290: 9576 0b3f b35a 99be 82e0 6d3e 5028 a03e
000002a0: 065c 283e 1357 31be 96f2 a1be 63dd 7bbe
000002b0: 3be3 2ebd 6f44 1cbf f331 47bf ca4f bb3e
000002c0: 8a9a 08be a8ed 48bf ab69 07be 3af9 873e
000002d0: ecb3 81be 8c61 1b3f 6bbd d33f 48d5 51be
000002e0: 4989 9abd aa6c bb3e 0842 b93e 8d24 583d
000002f0: c761 563e 1c07 3abe c3d0 2cbe acb0 a63d
00000300: 2e82 95be 1d77 07be 898b 853e 31a7 03be
00000310: f11c acbe fd17 303e 2096 033f 487c 0f3d
00000320: 6f59 5cbe eb3a 823e ca1b f9bd 2744 6b3d
00000330: db4c b03e 4650 f13e b6fb f73d 1e90 133f
00000340: bf60 623d f95a b73e 7cdf 8cbf 9190 a7be
00000350: 7129 b2bd 7a91 80be 58cb 833e 0461 a0be
00000360: 48c1 e6be bed5 9cbe 3386 a8be f4eb ef3c
00000370: 7b36 a5be 47fb 63be da52 2c3d 6c74 b8be
00000380: bdab 3a3f bef1 2e3f 6ce8 313e 9c0e fe3d
00000390: 27fa c83e 4d1d 823d ba66 2b3f fa1d 863e
000003a0: 1d44 063f 3d0a d03e f60e 63bd bb40 dabd
000003b0: da32 24be b2c1 00bf 509f c3be 57af a5be
000003c0: 1278 01be 7cb5 29be 6bad 90bc 674d 97bf
000003d0: 5fd0 b43e 0b3f ae3e 2d6f 92bd fd6e 90be
000003e0: 4704 cdbd 5458 9ebf c9cf 2c3e 318a 6abf
000003f0: 26b7 83bc b74f d6bd 40ab c53e f81a 1e3f
0.08007859 -0.08737663 -0.36564717 -0.39761826 0.7048993 0.08271127 -0.238275 0.036006443
-0.6573512 0.11715184 -0.59351385 -0.24247006 -0.46889427 0.24837108 -0.8131665 0.12557028
-0.20537177 0.02182209 1.4142854 -0.15991041 1.2966373 -0.3155202 0.123238415 -1.36396
0.97426224 0.42867324 -0.013257701 0.2649521 0.46857813 1.1510785 0.51301575 -0.016638424
0.32103744 -0.2593132 0.079986386 0.22162169 -0.3426454 -0.25537384 -0.6255936 0.0700303
0.3681121 0.70958906 0.28514755 0.30957496 0.0830767 -0.75748795 -0.020126158 -0.3012421
0.104165085 0.7273212 -0.034186985 -0.9598222 -0.46887133 -0.4476068 -0.15454292 0.09812198
-0.40208942 -0.15165049 -0.3678759 -0.31450024 0.28350812 -0.4127827 -0.13745816 0.24909459
0.5425855 0.9995697 1.6232885 0.25646845 -0.3290383 -0.6692719 0.19059785 0.21761239
-0.642586 0.31563792 0.045442343 0.3396534 0.47934222 -0.15841544 -0.83993316 -0.4262825
0.9518018 0.043544173 -0.484127 -0.20645033 -0.9500964 0.18151785 0.027361829 -0.020014055
-0.25037426 0.14074555 0.6120208 -0.06257711 -0.6664855 -0.15353523 -0.43163252 -0.0055034417
0.1903806 -0.3550952 -0.80905706 0.3135881 0.025400491 0.028671786 0.6183764 0.100237146
0.061795298 0.12996697 0.47206667 0.29360154 0.23918489 -0.0029508048 -0.45261955 0.48057726
-0.4917518 0.4154472 -0.012571226 0.8468063 0.12357978 0.30507198 0.37232783 0.23748109
-0.21879509 -0.2863737 0.6359359 0.4118248 0.46055153 0.48541927 -0.07288722 -0.42674884
0.25769526 0.2797299 -0.02851725 0.0019620112 -0.18763305 -0.7154069 -0.1565663 0.27754682
-0.034006845 -0.6148537 0.989358 0.33196276 -0.030378964 0.4313953 0.11330266 -0.14100267
-0.10716682 0.2467466 0.12350613 -0.7934916 0.6209476 0.6719466 0.004450256 -0.24469353
0.4386618 0.38846746 -0.4069438 -0.31190622 -1.23712 -0.70389855 -0.6980567 0.6716342
-0.09896103 0.18424968 -0.20241801 -0.4031632 0.54477817 -0.2995201 0.23230174 0.31280756
0.16441354 -0.17318372 -0.3163039 -0.24596171 -0.042697173 -0.6104192 -0.7781059 0.36584312
-0.13340202 -0.78487635 -0.13223903 0.26557332 -0.25332582 0.6069572 1.6542181 -0.20491517
-0.07545716 0.36606342 0.3618319 0.052769233 0.20935737 -0.18166775 -0.16876511 0.08139166
-0.29200882 -0.13229032 0.2608302 -0.12856747 -0.3361583 0.17196651 0.5140095 0.035030633
-0.21518491 0.25435576 -0.121635035 0.057438042 0.34433636 0.47131556 0.12108557 0.5764178
0.055268046 0.35811594 -1.1005702 -0.32727483 -0.086993106 -0.2511099 0.25741076 -0.31324017
-0.45069337 -0.30631822 -0.32914886 0.029287316 -0.32268128 -0.22263823 0.0420712 -0.36026323
0.729183 0.6833762 0.17373818 0.1240513 0.3925335 0.06353245 0.66953623 0.26194745
0.5244768 0.4063281 -0.05543419 -0.106568776 -0.16035023 -0.50295556 -0.38207483 -0.32360336
-0.1264346 -0.16573137 -0.017660817 -1.1820496 0.35315225 0.34032473 -0.07150111 -0.28209677
-0.100105815 -1.2370706 0.16876139 -0.91617113 -0.016078543 -0.10464423 0.38607216 0.617599

l1.bias f4 [8]
00000000: 3ded 713f 5db5 373f a655 853f dbd3 3f3f
00000010: 4ce8 a73f f9d1 6e3f 107a 603f 3ddf 9f3f
0.9450262 0.71761113 1.0416763 0.7493264 1.3117766 0.9328914 0.8768625 1.2490002

l2.weight f4 [8, 8]
00000000: d86a b4be 983c bfbd 1fdd 503e dfba bcbe
00000010: ea95 693e 86de 96be 03de 533d 598a 98be
00000020: 5633 0940 bd3c 473f 9266 f23f 5aba 09be
00000030: 9a37 b8be 335d 48bf 1017 aebf 17fa 1640
00000040: afa2 f6be 49ae babf 39de 953f 0887 9a3e
00000050: 2568 f23d ee68 fc3f 7833 8fbf 3e03 0b40
00000060: 2824 2bbe d100 b2bf 3456 83bf 17d5 d73f
00000070: 131e e1be 0b9d 0640 a6b3 2340 6e8f b63f
00000080: f462 ae3f b944 c6bf 0cf7 1840 3381 3ebf
00000090: 7734 f93f 755c 22bf 6054 043f 5912 98be
000000a0: 9d17 893e 776b 9fbf 3e61 4a3f aa42 ebbf
000000b0: d9b8 e73f 8439 0840 0e05 6ebf fb72 0d3f
000000c0: 52d4 2d40 b505 8d3f 5738 7b3f b648 af3f
000000d0: 08c8 bf3f d83e 26bf 3e7f d2bf a6cd a83e
000000e0: 69e1 d0bf 32d1 2540 94b9 e63f 07ac e2bf
000000f0: 7130 1540 f328 8b3e df4c 3040 9347 7f3f
-0.35237765 -0.09337729 0.20396851 -0.3686132 0.22811094 -0.29466647 0.0517254 -0.2979305
2.1437583 0.77827054 1.8937552 -0.13449994 -0.3597992 -0.7826721 -1.3600788 2.3590143
-0.48170993 -1.4584438 1.1708442 0.30181146 0.1183627 1.9719522 -1.1187582 2.172073
-0.16713011 -1.3906499 -1.0260682 1.6861905 -0.43968257 2.1033351 2.5578399 1.4262521
1.3623948 -1.5489722 2.3900785 -0.7441589 1.9469136 -0.6342233 0.51691246 -0.29701498
0.26775828 -1.2454671 0.7905463 -1.8379719 1.8103286 2.1285105 -0.9297646 0.5525357
2.716084 1.1017367 0.9813284 1.3694065 1.498292 -0.6493964 -1.6445081 0.32969397
-1.631879 2.5908933 1.8025384 -1.7708749 2.3310816 0.2717968 2.7546918 0.9971859

l2.bias f4 [8]
00000000: d5fa 3cbe 4bcf 773d 8620 1d3e 7b7f 143f
00000010: 8912 d6bd 9bce 093f db22 9b3f 69ec 173f
-0.1845506 0.060500424 0.15344438 0.5800702 -0.10452754 0.5383088 1.2120012 0.5934511

l3.weight f4 [20, 8]
00000000: e339 5bbe d313 86be d661 38bf 541a 13bf
00000010: a84c 423f 23d2 653f c273 303f fe21 1ec0
00000020: 3305 8f3d 0b35 e4bd bfd7 e13d 9909 ebbe
00000030: 4672 e6bf e9f5 a3bf 17bb b03e 7503 603e
00000040: bd0f 12be 16ea 16c0 eb01 8f3e 0b67 fa3d
00000050: 016a 81bf 10f3 5c3f ef65 0dc0 a4c5 f93e
00000060: 5f00 c53d 5563 263e 8880 60bf 50a9 37c0
00000070: 7700 213f 174d b93e bde0 08be 9ee4 b63e
00000080: a7b3 70be 54be 19bf 60f3 f83c 10e8 06be
00000090: 9efe be3e c03b 0a3f 0cc8 78bf be08 863e
000000a0: da60 8d3d 8c9d 5d3f 7b87 83bf c698 0dc0
000000b0: 47a9 a53e 459a 74bf 7f38 383f fbbf 75bf
000000c0: b267 703d ebc6 2abe b470 0ac0 9fe2 1bc0
000000d0: 8539 6abe d026 e6bf 1b92 c7bd e450 853f
000000e0: 847c 863e 49aa 343f c59b df3e 8ab3 e5be
000000f0: 8b5f 36bf 859c 92bf fdba c43e 6ad4 03c0
00000100: 9b1c ecbd fa5a 1bc0 1ef1 fabf e98d 8dbf
00000110: 1b79 7e3f bde6 a83e 7ed0 40bd b24a 193f
00000120: 93f6 37bc 9e4c 7d3f f93a 3bc0 a13a 5dbf
00000130: 544c e6bf 6615 4bbf 6911 783f f7bf d4bf
00000140: 9330 c539 e1a9 3bbf 0c17 793f c5ad 063d
00000150: 371a 5abf e1a1 573f b029 193d 0f8c 99bf
00000160: ab7b 50be ee24 913e a7dc 0d3f 88fc 5b3f
00000170: 08b6 0dbf 8f04 54bf a081 27bf 3d37 27c0
00000180: 8ca2 86be af7c 0ec0 401a 18c0 91a6 9f3f
00000190: 367c 1ebf 597f 1abf a858 11bf 3d66 303d
000001a0: 4e23 6bbe 7490 1a3f a5bb d1bf bf61 3cc0
000001b0: 3591 02c0 eb1d febe 1d70 453f 68bf a23e
000001c0: 9138 713e 726a a2bf 7268 efbf 6f25 263f
000001d0: b5fd 4abf 299f 27bf 03e2 863f 02a0 ddbf
000001e0: b7e5 fa3d 9146 31c0 d2d8 b6bf 0657 8dbe
000001f0: 84d6 a9bf c49a b6bf dc8b 08bd e690 803f
00000200: efb5 d83d 5685 983e 97d9 133f 946d b4bf
00000210: a023 a33e 96b5 123f 2a7c 253e 5aba 44bf
00000220: 26fc e6bd 6599 30bf 30c1 d0bf bbe5 c83e
00000230: b862 27be 44af 6abf bd66 10c0 9abd 463f
00000240: 9bef 9e3b d477 0fbe aa65 3cbf 6da1 bc3d
00000250: 9c52 873f c225 9fbf 5a19 72bd dd6b 07bf
00000260: 687a aabe 90ac 96bf fe7d 373f 91f4 613f
00000270: 6c5d 0fbf 54ba 48bf a341 bbbf 59f8 adbe
-0.21408801 -0.26187 -0.72024286 -0.5746205 0.7589822 0.8977377 0.6892663 -2.4708247
0.069834135 -0.1114293 0.110274784 -0.4590576 -1.8003623 -1.2809421 0.34517738 0.21876319
-0.14263816 -2.3580375 0.2793115 0.12226685 -1.0110475 0.86308384 -2.2093465 0.487836
0.096192114 0.1624883 -0.87696123 -2.869709 0.62891334 0.36191627 -0.13366981 0.35721296
-0.23506032 -0.6005604 0.030389488 -0.13174462 0.37303632 0.5399742 -0.9718025 0.26178545
0.069032386 0.8656852 -1.027572 -2.2124496 0.3235571 -0.95547897 0.71961206 -0.95996064
0.05869264 -0.16677444 -2.1631289 -2.4357069 -0.22873504 -1.7980595 -0.09744664 1.0415311
0.26266873 0.70572335 0.4367353 -0.4486354 -0.71239537 -1.1454016 0.3842391 -2.0598397
-0.115288936 -2.4274278 -1.9604833 -1.1058933 0.9940354 0.3298854 -0.047073834 0.598796
-0.0112282215 0.98945034 -2.9254744 -0.86417586 -1.7992043 -0.79329526 0.96901566 -1.6621083
0.0003761096 -0.7330609 0.9730079 0.032880563 -0.8519625 0.8423138 0.037393272 -1.1995867
-0.20359676 0.28348488 0.55414814 0.8593221 -0.5535588 -0.82819456 -0.6543217 -2.6127465
-0.26295888 -2.22636 -2.3766022 1.2472707 -0.6190828 -0.6035057 -0.56775904 0.043066252
-0.22962686 0.6037667 -1.638539 -2.943466 -2.0401127 -0.496322 0.77124196 0.31786656
0.23556735 -1.2688735 -1.8703749 0.6490087 -0.79293376 -0.65477234 1.0537723 -1.7314456
0.12250846 -2.769932 -1.4284918 -0.27605456 -1.326859 -1.4265981 -0.033336505 1.004422
0.10581576 0.29789227 0.5775389 -1.409594 0.31863117 0.5730833 0.16160646 -0.7684685
-0.11278562 -0.6898406 -1.6308956 0.3923777 -0.16346252 -0.91673684 -2.2562706 0.7763306
0.0048503405 -0.14010555 -0.7359263 0.09210477 1.0572085 -1.2433398 -0.05910621 -0.5289896
-0.33296514 -1.1771412 0.71676624 0.88263804 -0.56001925 -0.78409314 -1.4629406 -0.33978537

l3.bias f4 [20]
00000000: 0787 f03d 849d fc3e a4d7 d2bd 35c2 53be
00000010: 676c 33bf afff 81bd 1da7 34be b474 ef3d
00000020: 0be7 0c3d 5714 863e 93e5 cb3e 60c5 febe
00000030: e20e 0c3f fb95 af3e 3647 1a3f d684 103f
00000040: 5043 10bf f420 43bc 8901 a3be b9b5 a3be
0.117445044 0.49338925 -0.102950364 -0.20679553 -0.70087284 -0.06347596 -0.17641874 0.11692181
0.034400027 0.26187393 0.3982359 -0.4975996 0.5471021 0.34294114 0.6026491 0.5645269
-0.5635271 -0.011909712 -0.3183711 -0.3197458
