model.pth (torch, 128958 bytes, 14 tensors)

fc1.weight f4 [64, 332]
000000 f0 2a 94 bc dd 08 03 be 86 14 21 3d 28 c7 64 bd
       -0.01808688 -0.1279635 0.039326213 -0.055853993
000010 08 75 fc bc ef ca 9c 3d 48 d8 c5 bd c7 1f 1a bd
       -0.030817524 0.07655894 -0.09660393 -0.03762796
000020 79 18 43 3b 5c 4f eb bc 29 85 8d 3c bc d9 ca 3d
       0.0029769226 -0.028724365 0.01727541 0.09904811
000030 59 10 74 3d 87 45 3c 3c 84 9c e9 bd 91 6b 72 3d
       0.059585903 0.011491186 -0.11406806 0.059184615
000040 0e 98 9e 3d 58 a1 ae bc 2c 9a 1a 3d ef 71 7e bd
       0.07743846 -0.02131717 0.037744686 -0.062120374
000050 fd b0 a3 3d f2 4f af 3c 81 9e 64 be 3e 0c c6 3d
       0.07992742 0.021400426 -0.2232609 0.09670304
000060 e8 f9 73 bd ad 05 39 3e 99 69 a1 bd fe 4a 9a bd
       -0.0595645 0.18068571 -0.07881469 -0.07533835
000070 2f 72 b9 3b 6c 18 80 3d 3a 18 08 be b5 16 4c 3d
       0.0056593637 0.06254658 -0.13290492 0.049826343
000080 9d e5 40 3c ca 1f 62 3c 4c a7 32 bc cb 07 23 3d
       0.011773494 0.013801524 -0.0109041445 0.039802354
000090 3e 2d f8 bd 21 8f b9 bd f3 4f 9e 3d 23 fc 25 bd
       -0.12118004 -0.09060503 0.07730093 -0.04052366
0000a0 7d 75 76 3d af 1d 17 be 45 eb da 3d 34 d6 b9 3d
       0.06017064 -0.14757417 0.10689405 0.09074059
0000b0 35 fc 08 3e d7 2e 09 be 2a e7 22 bd 16 03 38 be
       0.1337746 -0.13396774 -0.039771236 -0.17969927
0000c0 32 41 e0 3d bc b1 16 be 95 83 b8 3d b9 a1 c6 bd
       0.10949935 -0.14716238 0.09009472 -0.09698815
0000d0 c6 88 0e 3e 2b 05 9c 3d 97 2a 1a be dc f4 f0 3c
       0.13919362 0.07618173 -0.15055309 0.029413633
0000e0 81 d8 e5 3c a8 bc f2 3d b9 9e 6e 3e 2f 56 d4 3d
       0.028057339 0.118523896 0.23302735 0.10368001
0000f0 3a 96 2b 3e 15 7c 03 3e b5 f0 e0 bd 57 05 a9 3d
       0.16756526 0.12840302 -0.10983411 0.082529716
000100 d1 90 48 be 30 f8 a3 3d f3 36 56 be cb ed 9d 3e
       -0.19586493 0.080063224 -0.20919399 0.30845484
000110 00 e8 5c 3e b8 49 8f 3e f9 96 e1 bd 59 0c 8c bd
       0.21572876 0.2798593 -0.11015124 -0.06838293
000120 b8 be 9b bd 9b 02 d0 3d c3 f1 34 bd 63 9f 05 be
       -0.07604736 0.10156747 -0.044175874 -0.13049082
000130 42 20 18 be f2 12 55 3e 12 1e b9 3e d6 35 a1 bb
       -0.14856055 0.20808008 0.36155754 -0.004919748
000140 fb 11 2f be a3 b9 ca 3d 8d 48 a8 3d 34 88 3c bd
       -0.17096703 0.09898689 0.08216963 -0.04602833
000150 29 ec ea bd 31 6a 19 3d 5c cb 29 3d eb 50 86 3d
       -0.11470825 0.037454788 0.041453704 0.06558403
000160 4c d5 4a bd 4e 46 db bc d6 cc 0a bc 9b 68 b6 3c
       -0.049519822 -0.026766922 -0.008471688 0.022266677
000170 01 7d 05 be a6 34 60 3c 96 b1 fb bd 0d 6c 15 be
       -0.13035966 0.013684427 -0.12289731 -0.14592
000180 5e b2 41 3d 74 16 84 be 72 17 88 be 25 79 33 be
       0.047289245 -0.2579838 -0.26580387 -0.17526682
000190 94 e4 50 bd ca c5 5f bd ad d1 29 be b3 06 f7 b9
       -0.05099924 -0.054631986 -0.16583891 -0.00047116503
0001a0 08 2b 52 3c f8 5a 67 3c 9f ea 86 be ae b7 24 3d
       0.012827642 0.01412081 -0.26350877 0.040214233
0001b0 8a ce 38 be 06 30 07 be eb 97 ef 3d 6d 54 23 3e
       -0.18047538 -0.13201913 0.11698898 0.15950175
0001c0 0b b8 ce 3c 0f 10 76 be 05 ea bb 3d 48 b4 33 bd
       0.025234243 -0.24029563 0.09175495 -0.0438731
0001d0 a9 e0 66 3d fd bc 1b be 71 2e e3 3d db ae 50 3e
       0.056366596 -0.15208812 0.11092842 0.20379202
0001e0 db 7d 08 be 0c b6 09 be ae 14 30 3e f8 65 a8 3c
       -0.1332926 -0.13448352 0.17195389 0.020556435
0001f0 48 5d 2c 3c 82 b0 ce 3d fd 05 99 3b a6 ac 89 3d
       0.010520287 0.1009226 0.0046699033 0.06722383
000200 b3 0f 48 be 09 61 64 bd f3 10 7c bd eb 6d 23 bc
       -0.19537239 -0.055756602 -0.0615396 -0.009974937
000210 67 c6 d0 bc 75 f2 ad be 53 e9 fa bd c1 fe db bd
       -0.02548523 -0.33974043 -0.12251534 -0.1074195
000220 3f 7f 14 be 2c 52 c0 bd 60 50 ba bd 26 e4 b4 3d
       -0.14501666 -0.09390673 -0.090973616 0.08832578
000230 5b ae 59 3d f2 b2 ad bd 9b d1 f7 3d c7 08 49 3e
       0.053144794 -0.08481397 0.12100526 0.19632255
000240 6b 03 22 3d f4 21 35 3e 0f 0f 52 3e 03 60 b0 3c
       0.03955404 0.17688733 0.20513557 0.021530157
000250 64 d9 ee 3d 30 70 9c bd 8a c5 1d 3e b5 03 7d be
       0.11662558 -0.076385856 0.15407386 -0.24708445
000260 51 1c 6a 3e 87 f4 b6 bb fe c0 a5 bd f7 b1 aa 3e
       0.22862364 -0.005583349 -0.08093451 0.333389
000270 f6 a5 aa 3e 83 61 64 bd 74 31 af 3d f2 91 f9 bc
       0.33329743 -0.055757057 0.08554354 -0.0304651
000280 ef a7 76 bd 5f c4 04 3d ac 1e ad 3d c5 3b 9b bd
       -0.060218748 0.032413837 0.08453116 -0.075797595
000290 36 f7 8d bc 99 ad 8e bc 2e 6d 2b be b6 0c 71 3d
       -0.017329793 -0.017416762 -0.16740867 0.058850013
0002a0 ff 02 29 3c 29 f2 b1 3d bc a6 9f bd 1d 60 c7 bd
       0.010315656 0.086887665 -0.07795474 -0.09735129
0002b0 3c cb 29 3e c2 ef 6e be 7d 8a c9 3d a3 82 a3 bc
       0.16581434 -0.23333648 0.09840868 -0.019959753
0002c0 40 c6 3a be 11 e3 08 be 51 ae 1a 3e 0b 2b 91 bc
       -0.18239689 -0.13367869 0.15105559 -0.01772072
0002d0 97 e6 88 3e 54 17 93 be d3 2f 93 bc 21 51 45 be
       0.26738426 -0.28728735 -0.01796714 -0.1926923
0002e0 fc 73 dd 3c dd 18 54 bd 1a c3 6b 3b 89 b7 30 be
       0.027032845 -0.051781524 0.0035974444 -0.17257513
0002f0 c2 c2 a5 3c 01 f5 2c 3e e0 b2 f1 3b e4 7d 89 3d
       0.02023447 0.16890337 0.00737606 0.06713465
000300 18 e5 c8 bc 29 dd fb bc 93 88 67 bc f0 c3 16 3e
       -0.024523303 -0.030745106 -0.014131683 0.14723182
000310 06 a8 00 3e 64 84 70 3d 61 04 0c bd 5c fb bb 3c
       0.12564096 0.058720008 -0.034183864 0.022947006
000320 64 96 34 3e ce 4b af bb 26 ed 19 3d 31 1a 32 be
       0.17635494 -0.005349613 0.037579678 -0.17392804
000330 5b 08 70 bc 5a f8 8a 3d f1 ec 6b 3e 74 e0 54 bd
       -0.01465043 0.067856506 0.23039605 -0.051971868
000340 cd dd 61 bd 36 7b 1e be 07 27 8d bd 9f 09 bc 3d
       -0.055143166 -0.15476689 -0.068922095 0.091815226
000350 20 5a 99 bd 9a dd 6a bd 63 1c 2e 3d 07 19 0e 3d
       -0.07487893 -0.057340242 0.04250754 0.034691837
000360 7b 1b 4f be 00 13 31 bd c8 8b 9a bc fe 2c 50 bd
       -0.20225327 -0.04323101 -0.018865481 -0.050824158
000370 61 ad 43 be 1b ed 0a 3e f3 31 5b bd fa 25 57 bd
       -0.19109108 0.13567011 -0.053514432 -0.05252645
000380 67 ae 0e bc f9 f2 a4 bc f2 79 01 bd f4 00 48 bd
       -0.008708573 -0.02013539 -0.031610437 -0.048829034
000390 db 5f da bc 51 d8 3c 3c 90 b0 89 3d a9 24 d8 3c
       -0.026657036 0.011526183 0.0672313 0.026384668
0003a0 7a 41 dc bd ac 39 06 3e 79 08 79 be 2b fc 98 be
       -0.10754676 0.13107938 -0.24319638 -0.2987989
0003b0 22 36 b4 bd e5 ca 8c be 70 67 c2 3c 8c ae 57 3d
       -0.087993875 -0.27498546 0.023730963 0.052656695
0003c0 31 7e 99 bc 65 1a 02 bd 81 0f b5 be 8c 64 29 3e
       -0.01873693 -0.031763453 -0.3536339 0.16542262
0003d0 64 78 38 3e a4 48 0f 3e 40 a7 32 3e 00 0c a7 bd
       0.18014675 0.13992554 0.17446613 -0.08156586
0003e0 2d aa 2b be 91 dc 00 bc 7d 2a 82 3e 0d b1 5d 3d
       -0.16764136 -0.007865087 0.2542304 0.054123927
0003f0 27 70 e5 3d 73 05 16 3e 93 26 54 be 34 9f 78 3e
       0.11203032 0.14650516 -0.2071784 0.24279481

fc1.bias f4 [64]
000000 d7 57 1e bd 75 a9 3c bd 08 14 6d 3b bb 82 9c bd
       -0.03865799 -0.046060044 0.003617527 -0.07642122
000010 a5 8d da ba 4b 00 8f bc 6f 59 03 3d 5c ae c4 3d
       -0.0016674293 -0.017456194 0.032067712 0.09603569
000020 f1 5f 85 3d 39 a8 bc bd 79 c5 27 3d 58 21 44 bd
       0.0651244 -0.092117734 0.04095981 -0.04788336
000030 c1 39 09 bd 80 14 e1 3d ac a3 ee bc 47 e7 0e be
       -0.033502344 0.10990238 -0.02913078 -0.13955413
000040 74 1d 95 3d 89 cc d7 bd ce ed 66 bd 7e 08 6b bd
       0.07281008 -0.10537059 -0.056379132 -0.057381146
000050 91 68 7d bd 81 0e 0b 3e 34 9f 37 3c 50 5e 3a bd
       -0.0618673 0.13579752 0.011207391 -0.0455001
000060 7d e6 3b bd df 03 8a 3d ef 99 fb bb cc 8d bb bb
       -0.045874108 0.067390196 -0.0076782624 -0.0057236906
000070 5c 4f cf bd ac a8 bf 3c be 09 8e 3d 20 ee 80 bd
       -0.101225585 0.023395859 0.06935452 -0.06295419
000080 43 87 3b 3d 7d 7c 3c bd d4 32 63 bd 55 3a 70 bc
       0.045783293 -0.04601716 -0.055468395 -0.014662345
000090 60 5b f5 bd 22 9e c7 3d 78 fb 16 3d 92 72 aa bd
       -0.11980319 0.09746958 0.036860913 -0.08322634
0000a0 c0 0d 25 3e 86 ca 1e 3d 0e 8c df 3b 50 ba 50 bc
       0.16118526 0.03876736 0.0068221157 -0.012739733
0000b0 26 99 db bb 6a cc 2c 3d 3e 6a 79 bd c7 1f cb 3d
       -0.0067016063 0.042187132 -0.060892336 0.099181704
0000c0 0b 66 6a bd 96 ac d2 bb 06 7b d1 bd c0 c4 4a 3d
       -0.057226222 -0.0064292653 -0.10228543 0.04950404
0000d0 57 2e b3 3b ef 89 1a bc 00 14 2d 3d a1 f3 cc 3d
       0.0054681706 -0.0094323 0.0422554 0.10007406
0000e0 ac f9 3c bb 2f cb 78 bd 9b 9f d1 3c 5d 73 35 bd
       -0.002883534 -0.060740646 0.025588801 -0.044299472
0000f0 36 3c ac 3d 8e a8 ea 3d a3 a1 7f 3d 29 d2 cc 3d
       0.08409922 0.114579305 0.06241001 0.10001022

bn1.weight f4 [64]
000000 09 7a 10 3f 16 4d 1e 3f c5 0b 1a 3f 8a 13 09 3f
       0.5643621 0.61836374 0.6017421 0.5354544
000010 de 35 16 3f 69 57 03 3f a5 0a 2c 3f 39 25 0d 3f
       0.58675945 0.5130525 0.6720374 0.5513492
000020 32 3f 47 3f c0 2d 09 3f 38 e2 27 3f cd 78 22 3f
       0.77830803 0.53585434 0.6557956 0.6346558
000030 e0 62 0a 3f d1 84 10 3f e1 fc 53 3f 7c cf 1c 3f
       0.5405712 0.5645266 0.8280774 0.61254096
000040 70 30 1e 3f 2f d5 03 3f cd 50 19 3f 93 74 07 3f
       0.6179266 0.5149717 0.5988892 0.52912253
000050 af 4f 13 3f 14 be 0c 3f c1 67 04 3f b7 5a 0f 3f
       0.5754346 0.54977536 0.51720816 0.55997795
000060 45 47 08 3f d1 28 5a 3f 29 3b 09 3f 38 f9 01 3f
       0.5323375 0.8521853 0.53605896 0.507709
000070 d6 c7 10 3f 66 6a 0b 3f b7 d1 0e 3f da 41 0a 3f
       0.56554925 0.54459226 0.5578875 0.5400673
000080 da 9b 12 3f ab a2 10 3f 95 30 fd 3e 61 d1 3a 3f
       0.5726906 0.5649821 0.49451128 0.72975737
000090 68 77 0a 3f f1 98 18 3f 4a 0f 08 3f d6 d5 0b 3f
       0.5408845 0.5960837 0.5314833 0.5462316
0000a0 24 d8 07 3f c6 98 04 3f fd 91 15 3f 46 a9 18 3f
       0.5306418 0.51795614 0.58425885 0.5963329
0000b0 da b5 0d 3f dc ab 13 3f b2 5f 25 3f ea b4 20 3f
       0.5535561 0.5768411 0.64599144 0.6277605
0000c0 e6 9d 03 3f 09 00 1c 3f dd fa 29 3f bc ac 23 3f
       0.5141281 0.60937554 0.6639841 0.63935447
0000d0 15 47 1d 3f bd 6a 1e 3f e1 bc 06 3f 80 05 12 3f
       0.6143659 0.6188162 0.52631956 0.5703964
0000e0 48 52 10 3f 86 5c 09 3f aa 36 21 3f 1d 8d 1c 3f
       0.5637555 0.53656805 0.62974036 0.6115282
0000f0 de d6 18 3f bd cc 0e 3f 11 e9 1a 3f 72 19 14 3f
       0.5970286 0.55781156 0.6051188 0.57851326

bn1.bias f4 [64]
000000 1f 36 82 3c be e4 ea bd b7 5b 37 bd 9e e6 a8 bc
       0.015894948 -0.1146941 -0.0447652 -0.02061778
000010 d5 9f b0 bd b6 d4 4a bd 43 49 ac 3d 7a 2a b5 3c
       -0.086242355 -0.049519263 0.08412411 0.022114981
000020 24 22 ab be 30 32 c1 bc e2 06 07 3c 93 73 c5 bd
       -0.33424485 -0.023583502 0.008241387 -0.09641185
000030 ca 63 cf 3c 55 d7 8b 3d e2 80 b3 be cc 33 ad bc
       0.025316138 0.06828181 -0.35059267 -0.021142863
000040 a5 44 3a bd 42 fd b8 3d 56 40 fb ba c8 99 82 bc
       -0.04547562 0.0903268 -0.0019168954 -0.01594247
000050 89 6d c2 bc 78 74 26 3d bd 1e 1c 3d a3 9d 82 bd
       -0.023733871 0.040638417 0.03811525 -0.06377723
000060 e5 2b 0e 3d 79 b3 d2 be 6a 93 51 bd 82 24 81 bc
       0.03470983 -0.41152552 -0.051165976 -0.015764479
000070 f2 bc 42 3b fb 9d 8c bc cf 99 39 bd 0d f8 2a bc
       0.002971467 -0.017165175 -0.0453127 -0.0104351165
000080 17 b3 64 3c bb e1 45 bd 5f b1 cd bd 2a ed 63 be
       0.013958714 -0.048310976 -0.100435965 -0.2225844
000090 6a c5 27 bd 4e 2d d7 bd 7e b9 0e bd 0a f0 0d 3d
       -0.040959753 -0.10506688 -0.034844868 0.034652747
0000a0 6e e9 91 bb 67 33 9a 3c 2a 1b a2 bd 6e 51 11 be
       -0.004452876 0.018823339 -0.079153374 -0.14191219
0000b0 d4 eb 6e bb 2e d3 0a bc f4 a2 ef bd b2 49 6b 3d
       -0.0036456482 -0.008473201 -0.11701003 0.05744333
0000c0 7b f7 d0 bc 33 69 37 39 76 df 23 be 41 91 fd 3c
       -0.025508633 0.0001749143 -0.16003212 0.030953052
0000d0 03 9d 33 3c a7 d0 4c bd 8b 3d ef 3c 9a e6 51 bc
       0.0109627275 -0.050003674 0.02920415 -0.012811327
0000e0 05 d2 cf 3c 3a 68 90 3c 75 b7 9a bb 64 93 ab 3b
       0.0253687 0.017627824 -0.004721577 0.005236076
0000f0 d4 81 b4 3d 2a a7 45 3d ae 7e 81 3d 9d 5e e4 3d
       0.08813825 0.048255123 0.0632299 0.111508586

bn1.running_mean f4 [64]
000000 f2 ee 8e bc 1e 0b 00 3d f6 90 05 3e f4 e2 a9 bd
       -0.017447922 0.031260602 0.1304358 -0.08295241
000010 f9 70 ef 3d 81 af fa 3d 7c 39 06 3e 87 2f 97 3d
       0.1169147 0.12240506 0.13107866 0.07382112
000020 21 ed 93 3d 2f 2f 2c 3d 46 00 93 3d 3b 91 45 3d
       0.07222963 0.042037185 0.071777865 0.048234206
000030 2e 87 e9 3d 9f 3c 6e 3d 28 08 8a bd 6c 0e 88 bd
       0.114027366 0.05816328 -0.06739837 -0.06643376
000040 19 a0 9f 3d f8 65 c0 3c 4d 94 9c bb e1 e2 b3 bc
       0.07794208 0.023486122 -0.004778421 -0.02195877
000050 ed ad 6c 3c eb 1a ca 3d 63 13 32 bc 38 00 3e 3c
       0.014445764 0.098684154 -0.01086888 0.011596732
000060 22 98 a0 3d 81 60 87 3d ae 51 96 3d 75 4b 01 bc
       0.07841517 0.066102035 0.07339798 -0.0078915255
000070 8a 75 4f bc 8d dc b3 bd e5 61 21 3d 6c 06 90 bd
       -0.012662301 -0.08782301 0.0394 -0.07032475
000080 ba 3f d0 3d f4 51 f3 bc fa 9a c9 3d a8 ee 31 bd
       0.10168405 -0.029702164 0.098440126 -0.04344049
000090 76 5e 82 3c db 0b 01 3d f9 ed de 3d a0 9d 9a 3c
       0.015914183 0.031505447 0.108852334 0.01887399
0000a0 d4 5f 84 3e 7c 23 d3 3d 63 b9 3e 3d 7c 18 e7 3a
       0.2585436 0.103095025 0.046563517 0.0017631198
0000b0 71 33 10 be cc f0 14 3d fe 93 4a bd 55 cd 38 3e
       -0.14082123 0.036362454 -0.049457543 0.18047078
0000c0 92 d9 fd bc 48 1d b8 bd 17 3d aa bd 03 75 7d 3d
       -0.030987535 -0.0898996 -0.08312433 0.06187917
0000d0 5f d5 01 3d 7e 4f 8c 3c cf fc 8c 3d 98 49 a1 3d
       0.031697627 0.017127749 0.06884157 0.07875365
0000e0 4a 2a 9a 3d 11 a8 73 bd c7 43 01 3e 5c 1a 88 3d
       0.07527597 -0.059486452 0.12623511 0.06645653
0000f0 ec 10 9c 3d eb df 38 3e 52 60 98 3c 2b 59 79 bc
       0.07620415 0.18054168 0.018600617 -0.015219013

bn1.running_var f4 [64]
000000 76 38 2f 3d d3 3b 6e 3d 94 92 2a 3d bb f9 17 3d
       0.042778455 0.05816252 0.041643694 0.037103396
000010 a9 df 5b 3d f0 7f 52 3d 3c d8 20 3d 6b 2a 36 3d
       0.053680096 0.051391542 0.039268717 0.044474047
000020 73 5c a3 3d 71 d8 40 3d bd c0 4d 3d ee 02 44 3d
       0.07976618 0.047081415 0.050232638 0.047854356
000030 7c d6 35 3d 97 c4 18 3d 73 9c 60 3d 9a 54 2a 3d
       0.044394 0.037296858 0.0548367 0.04158459
000040 c7 87 40 3d 45 20 2d 3d bf fb 17 3d db 06 29 3d
       0.047004487 0.042267103 0.03710532 0.041266304
000050 9c ca 61 3d e1 80 3c 3d 15 b6 25 3d b5 2f 28 3d
       0.055124864 0.046021346 0.04045685 0.041061122
000060 f4 dd 2f 3d a6 0d 86 3d 53 c1 4d 3d 68 b9 17 3d
       0.04293628 0.06545572 0.050233196 0.03704205
000070 68 e8 2d 3d 1c d9 2b 3d cf 5d 1c 3d 7c 2d 25 3d
       0.042457968 0.0419551 0.0381754 0.04032658
000080 dc ff 1e 3d e8 b6 25 3d d4 0d 3c 3d 48 9d 8b 3d
       0.038818225 0.040457636 0.045911625 0.068171084
000090 a6 85 26 3d ce da 5c 3d e9 d3 6c 3d 0b b2 01 3d
       0.0406548 0.053919606 0.05781928 0.031663936
0000a0 a2 07 38 3d fe 27 33 3d 13 f2 63 3d 0d 85 40 3d
       0.044929154 0.04373931 0.05565078 0.047001887
0000b0 10 fb 2a 3d 8f 00 6d 3d e6 ce 80 3d 9c 68 3d 3d
       0.041743338 0.05786186 0.06289463 0.04624234
0000c0 90 8e 49 3d f0 9f 3a 3d 8d 29 3d 3d 12 6c 6a 3d
       0.049208224 0.045562685 0.046182204 0.05723197
0000d0 12 0d 04 3d a9 65 ff 3c 83 40 15 3d a5 50 4d 3d
       0.032239027 0.031176405 0.036438476 0.050125737
0000e0 0a 61 17 3d ac 1e 47 3d cb 55 47 3d 88 37 3f 3d
       0.036957778 0.048613235 0.048665803 0.046683818
0000f0 84 5d 4e 3d cd 06 1e 3d 4a 3d 12 3d c8 ee 5f 3d
       0.050382152 0.038580704 0.03570298 0.05467108

fc2.weight f4 [64, 64]
000000 c6 48 8c 3e d7 bc 9a bd 80 38 99 bd 05 49 b8 bc
       0.27399272 -0.075555496 -0.0748148 -0.022495756
000010 97 61 b0 bc 32 45 00 3e 4f d6 b9 3e f9 72 ab 3e
       -0.02153091 0.12526396 0.36296317 0.33486155
000020 e3 47 76 3e dc 4f 22 be b3 66 49 3e fd 85 32 3e
       0.2405086 -0.15850776 0.19668083 0.17433925
000030 01 d3 ab bd 72 e5 bb bd 23 01 8a 3d 46 77 88 bd
       -0.08389855 -0.091746226 0.06738498 -0.066633746
000040 bc f9 4d be d4 0e f2 bd 76 00 91 bd fa 36 16 bd
       -0.20114797 -0.118192345 -0.07080166 -0.036673523
000050 eb 2a 88 3e 09 8a 05 3e ce cf 91 be 7f ad 90 3e
       0.26595244 0.13040937 -0.28478855 0.28257367
000060 12 9b a1 3d 52 6d 5d 3e 5e ee 94 3e 16 35 cf bd
       0.078909054 0.21623734 0.2908811 -0.10117547
000070 a0 f6 26 bd 4a 5f e5 3e 09 0a 4a 3e 54 c5 16 bd
       -0.040762544 0.44799262 0.1973039 -0.03680928
000080 ad 32 5c 3e f3 a0 52 be 52 5d 7c 3d 1d 66 a9 be
       0.21503706 -0.2056921 0.061612435 -0.3308572
000090 1e 48 d5 be e6 0a 75 3e 19 90 3f be 8e 5a ad bd
       -0.41656584 0.23929939 -0.18707313 -0.084645376
0000a0 75 49 f1 be a3 e8 9b be de 30 86 be 52 d1 d5 be
       -0.47126356 -0.30450925 -0.26209158 -0.4176126
0000b0 53 85 34 3e 0b 88 bc be d2 a7 08 3c 2f 95 0d 3e
       0.17628984 -0.36822543 0.008340793 0.1382644
0000c0 7e 94 66 3e a1 18 9a 3c 79 ca 75 be cb f7 43 be
       0.22517583 0.018810572 -0.24003018 -0.19137494
0000d0 a2 34 60 3e 3c 5d 94 3e 32 af 4f bd 93 39 f2 bd
       0.21895078 0.28977382 -0.05070419 -0.11827388
0000e0 bc e3 c3 3a 02 89 17 3e ad 66 cc 3d 3a 34 de be
       0.001494519 0.14798358 0.09980521 -0.4339922
0000f0 2d 28 ad 3d 2e 35 99 be 91 12 ac 3e 96 e1 c4 3d
       0.084549285 -0.29923385 0.33607915 0.096133396
000100 ba de 4e be 46 8f e6 bd b6 26 bb 3d 8b 40 08 3e
       -0.20202151 -0.11257796 0.09138243 0.13305871
000110 cb 73 b6 3e 9d 7a 71 3e 89 7c 54 be 6d 25 57 3c
       0.35635218 0.2358193 -0.20750631 0.013131482
000120 70 19 88 be f9 e7 96 bb 38 8a 2f 3e df 7f 06 be
       -0.26581907 -0.00460529 0.1714257 -0.13134716
000130 5b 8a 14 be 80 8e 1a be bd 04 e4 be cf 36 83 bd
       -0.14505903 -0.15093422 -0.44534865 -0.06406938
000140 b3 4b 4d 3e 83 2a 0a bb 3a 91 cc bd 9c 7f 97 bb
       0.20048408 -0.0021082468 -0.09988637 -0.0046233665
000150 94 cc 94 3e 3a 76 9d bd 05 ad e8 bd 1a 90 a0 be
       0.2906233 -0.076885656 -0.11361126 -0.3135994
000160 f1 bb f0 bd ab 61 c7 3e e3 2d dc 3e 4c c8 65 3e
       -0.11754597 0.38941702 0.4300376 0.22439688
000170 a5 20 88 bd 89 b8 e4 3d 8a 08 a3 3e 4e 4c 91 3e
       -0.066468515 0.1116801 0.31842452 0.28378528
000180 3e 28 02 3e 22 f1 b4 3e 43 87 ee 3d 68 2d 8b be
       0.12710664 0.3534022 0.11646893 -0.2718308
000190 7e dc 64 3c 28 49 84 3d 0e 42 3b 3e e7 a2 d0 3c
       0.013968585 0.06459266 0.18286917 0.025468303
0001a0 4e ab 00 3f 17 6f 14 3c 9f 63 15 3d b4 5d a7 3e
       0.5026139 0.009059689 0.03647196 0.32688677
0001b0 9f d8 5a be 6c d4 eb be 8c 8f 49 bd 5f a0 85 bd
       -0.21371697 -0.46060503 -0.049209163 -0.06524729
0001c0 ba 69 53 3d db 2f bd 3e 17 bd 0d 3e 54 fe 25 bf
       0.0516145 0.36950573 0.13841663 -0.648412
0001d0 71 16 b6 bc fc 48 25 3e 5e be a0 3e c5 23 dc bd
       -0.022227498 0.16141123 0.3139524 -0.1074901
0001e0 25 6e cc bb 6c 1c bd 3d 9a f5 8e bc 85 80 f8 bd
       -0.006238716 0.09233937 -0.017451096 -0.12133888
0001f0 56 e2 80 be a0 31 eb 3d 8e 6b 25 bd db ec 26 3c
       -0.2517268 0.114840746 -0.040385775 0.010188307
000200 42 5f 1c bc d8 30 78 be 17 ac a9 3d a3 b7 43 3e
       -0.009544196 -0.24237382 0.08284777 0.1911302
000210 dc 3d 90 3d 71 10 88 be 59 c7 05 3f 7e 1a 00 be
       0.07043049 -0.26575044 0.52257305 -0.12510106
000220 37 6f 00 bf 97 37 54 bd 7b 54 c6 be c3 8a f7 bd
       -0.501697 -0.051810827 -0.38736328 -0.120870136
000230 a6 45 cf 3e 2c 6c 58 3e ef 67 01 bf ac 5c 01 3e
       0.40482825 0.21135014 -0.50549215 0.12633008
000240 11 4d 37 bd ff b0 14 bd b3 56 14 be 81 f3 f5 bd
       -0.04475123 -0.03630161 -0.14486198 -0.12009335
000250 59 47 fe 3d 96 17 34 be 5e 1c 7e bb 2f da 5b 3e
       0.12415952 -0.17587122 -0.0038774232 0.21469949
000260 c5 6c 87 3c b2 6d 1c 3f be dc b0 3e 52 75 72 bc
       0.016531358 0.6110488 0.34543413 -0.014798479
000270 65 90 36 3e 64 1a 82 bd 76 f9 97 be 74 a1 20 bd
       0.1782852 -0.0635269 -0.2968251 -0.039216474
000280 08 06 7c 3e 5e b7 7e 3d 1a fd a1 3e 8c 2e ca be
       0.24611676 0.06218659 0.31638414 -0.39488637
000290 e7 a9 75 3e 44 fa 8f 3d 82 31 1a bc c2 ca f5 3d
       0.23990594 0.07030156 -0.009411218 0.120015636
0002a0 c9 40 24 bd a7 8b aa 3d 4c 63 75 be 70 1b 85 3e
       -0.040100846 0.08327418 -0.2396366 0.25997496
0002b0 4b 73 4c be 95 67 ad 3b c1 c5 f8 be 63 5e 83 3e
       -0.19965856 0.005291889 -0.48588374 0.2565795
0002c0 f7 34 98 be 33 b0 ee 3d f5 99 2b 3e c7 b2 6e 3e
       -0.2972791 0.11654701 0.16757949 0.23310386
0002d0 ab f0 82 3d 78 ea 95 be af 8b 1f 3e 37 7a cc bd
       0.0639356 -0.29280448 0.15580629 -0.09984248
0002e0 57 ef 1c be 95 97 00 bc 74 89 19 3e 92 61 96 3e
       -0.15325676 -0.00784864 0.1499384 0.29371315
0002f0 34 23 06 be bd e8 d1 3d ff 60 73 3e 07 06 39 3e
       -0.13099366 0.102494694 0.2376747 0.18068705
000300 9c 65 40 be c3 d9 57 3d 03 a7 a2 3c 24 0e 0c be
       -0.18788761 0.052697908 0.019855028 -0.13677269
000310 f9 7b a5 be 46 8b 6f bd a9 e3 8b be 6a 7f e6 3e
       -0.32321146 -0.05848243 -0.27322128 0.45019084
000320 75 4b 9a 3e aa 12 ba bd ed 60 a3 3c a4 91 a3 be
       0.30135694 -0.09085591 0.019943679 -0.31947052
000330 c7 81 0c 3e 40 1b 8d 3e 4e 14 1f 3e 64 6f a0 be
       0.13721381 0.27559853 0.1553509 -0.31334984
000340 a2 80 64 3e 76 c6 7c be 54 1f 02 bd a3 22 65 3d
       0.22314695 -0.24685082 -0.031768158 0.055941235
000350 2c bc 9f bd d5 ad bd 3d a2 27 81 bd 02 ed af 3c
       -0.07799563 0.092616715 -0.063063875 0.021475319
000360 3b db 9f 3d 9e 33 36 3e 5f 04 24 bd fc f8 bd 3d
       0.07805487 0.17793128 -0.04004323 0.092760056
000370 ed 1e 83 be 7a 4b 41 3e 4f 6a a6 bd 84 93 94 3e
       -0.25609532 0.18876448 -0.081257455 0.29018795
000380 2b 3f 29 3f 56 03 4b bc b8 bb 0b 3e 6a 3a 9b bc
       0.6611201 -0.012390932 0.13645828 -0.018948752
000390 92 8b 00 be 91 b0 36 3d 85 04 23 be f6 93 fd 3b
       -0.12553242 0.04460198 -0.15919693 0.0077385856
0003a0 d4 b7 13 bd 18 aa dc bc 58 68 eb 3d fb 8d 15 be
       -0.036063984 -0.026936576 0.11494511 -0.14604943
0003b0 41 a6 c7 3e 11 1a bf bd dc 84 30 3e 74 fe ce be
       0.3899403 -0.09331144 0.17238182 -0.40428507
0003c0 53 a9 cb bd 27 cb 84 3d 25 db cc be c0 a3 67 be
       -0.099444054 0.06484061 -0.40010944 -0.2262106
0003d0 f7 d2 d0 3d c3 fa f0 bd f3 37 60 3d f8 0d 1e 3e
       0.10196488 -0.11766579 0.054740857 0.15435016
0003e0 c0 c4 21 be cc 3e 17 3d 56 8c 8a be e1 9e 9d 3e
       -0.1579771 0.036925122 -0.27060193 0.30785277
0003f0 b1 9f c3 bc 48 5e a9 be 37 aa b7 3e a7 60 35 3f
       -0.023879858 -0.33079743 0.3587205 0.70850605

fc2.bias f4 [64]
000000 56 93 6b 3d b7 20 4d bd 9b fd 39 3a fb eb ac bc
       0.057513557 -0.050080027 0.000709498 -0.021108618
000010 02 ac dc 3c d1 2f 09 3e 7f dd e9 3c 68 bf 7e 3d
       0.026937488 0.13397147 0.028548 0.062194258
000020 15 59 d4 bd 72 4d fe bd 12 0f ac 3d fe 6f a2 3b
       -0.103685535 -0.12417115 0.08401312 0.004957198
000030 35 06 8a bb 77 6d 13 be 5d 9e 0a be 2d 22 bb 3d
       -0.0042121657 -0.14397226 -0.13536973 0.09137378
000040 fb b3 db 3d 73 3c e5 bd 92 c6 83 bc 3f 81 59 bd
       0.10727688 -0.111931704 -0.016085897 -0.053101774
000050 1e f1 47 bd 93 ab 56 3d 62 c1 d4 3d fb 9e fa 3d
       -0.04881393 0.05240972 0.10388447 0.12237354
000060 2c e9 83 3d 69 80 02 be a4 46 ce 3d 2b d4 bc 3c
       0.064409584 -0.12744297 0.100720674 0.023050388
000070 24 b6 f6 bd 3b 71 be bd 96 3d 38 3d eb 07 aa 3d
       -0.12046459 -0.09298941 0.044980608 0.083022915
000080 70 ef a1 3d fd 04 69 bc 40 ab 89 bc 60 c4 ab 3d
       0.07906997 -0.014222381 -0.016805291 0.08387065
000090 28 7e d1 bd 29 33 bc 3d 82 2f 9f 3d 3b eb 10 3e
       -0.102291405 0.091894455 0.07772733 0.14152233
0000a0 8a d3 f6 bd 89 3b 0b be d4 1d b3 3d 5d 7b 25 3c
       -0.120520666 -0.1359693 0.08745924 0.010100213
0000b0 cb 70 80 3d 50 87 e6 3d ca 9b 20 3b ff db ba 3d
       0.062715136 0.112562776 0.002450692 0.09123992
0000c0 f4 2f 0a 3e 87 e4 b0 3c 69 a7 df 39 aa 1c 86 3d
       0.13494855 0.021593345 0.00042658605 0.06548436
0000d0 67 8e 21 3d f5 13 d6 bd 71 66 ac bb d2 ac 22 bd
       0.039442446 -0.10453025 -0.0052612354 -0.039715596
0000e0 0d 32 4e bd 3d 69 9f 3d f5 08 35 bd 01 79 6f bd
       -0.0503407 0.077837445 -0.044197995 -0.058465008
0000f0 49 75 f3 3d 77 9f a5 bd 0f de 1a 3e e1 1a 00 3d
       0.11887605 -0.08087056 0.15123771 0.031275634

bn2.weight f4 [64]
000000 83 2b 09 40 5b 6f e4 3f 0a ad eb 3f 21 b4 f1 3f
       2.1432807 1.7846483 1.8412182 1.8883096
000010 5e 31 fa 3f 10 90 f0 3f dc 97 fe 3f dd 39 07 40
       1.9546316 1.8793964 1.9890094 2.1129067
000020 44 5c fa 3f f1 b3 ea 3f 9b e6 fe 3f 0d 40 01 40
       1.9559407 1.8336164 1.9914125 2.0195343
000030 0a eb 05 40 0e 5e ec 3f ee 9e f9 3f 5b 08 fd 3f
       2.0924706 1.8466203 1.9501626 1.9768175
000040 22 c0 ef 3f 18 98 04 40 e3 08 f9 3f 96 44 00 40
       1.8730509 2.071783 1.9455837 2.0041862
000050 2a 59 ed 3f 46 ef f9 3f 4b 3f 07 40 7b 41 fd 3f
       1.8542836 1.9526145 2.113238 1.9785608
000060 d4 3d 03 40 e8 f8 ff 3f e2 fb 00 40 b4 e1 03 40
       2.0506487 1.9997835 2.0153737 2.0606508
000070 3e 5a fe 3f ec cd f5 3f 11 dc 05 40 5b b6 05 40
       1.987129 1.9203467 2.0915568 2.089255
000080 ac 61 f4 3f 26 9a f1 3f 34 3d 00 40 26 a3 ec 3f
       1.9092307 1.8875167 2.0037355 1.8487289
000090 98 f0 00 40 4e 9d f2 3f 8b b2 f9 3f a1 43 f4 3f
       2.0146847 1.8954256 1.9507612 1.9083139
0000a0 14 39 07 40 8e d5 02 40 a1 8e 07 40 89 b4 ee 3f
       2.1128588 2.0442843 2.1180804 1.8648845
0000b0 60 cd f0 3f 24 3d d7 3f 0d 76 fc 3f c1 77 08 40
       1.8812675 1.6815534 1.9723526 2.1323092
0000c0 52 20 f0 3f df 8c fd 3f 82 bf 03 40 b8 79 fd 3f
       1.8759863 1.9808615 2.0585637 1.9802771
0000d0 4a bd fc 3f bc 54 f9 3f 95 34 00 40 dd b3 f6 3f
       1.9745266 1.9478984 2.0032094 1.927364
0000e0 b0 be 04 40 b9 14 05 40 39 52 06 40 c5 d0 e3 3f
       2.0741386 2.0793898 2.0987685 1.7798086
0000f0 17 e4 04 40 63 9e f5 3f 9f d0 f5 3f e5 01 e5 3f
       2.0764215 1.9188961 1.9204291 1.7891203

bn2.bias f4 [64]
000000 2f 16 70 3f 65 af 54 3f ef 96 6d 3f e1 e1 77 3f
       0.9378385 0.8308013 0.9280843 0.9682904
000010 a7 5d 73 3f ab a1 6c 3f ce a6 5c 3f 38 59 83 3f
       0.9506478 0.92434186 0.86192024 1.0261602
000020 2e 11 4b 3f 94 57 5a 3f 2d 18 68 3f 49 64 81 3f
       0.7932309 0.85289884 0.9066189 1.010873
000030 d2 73 54 3f fa ca 73 3f 67 b7 92 3f c9 ec 7e 3f
       0.8298923 0.9523159 1.146222 0.99580055
000040 7f 8f 4f 3f 70 5d 8a 3f dd a3 46 3f c9 2f 8c 3f
       0.8107833 1.0809765 0.77593786 1.0952083
000050 4e ad 65 3f 89 55 81 3f 17 5a 84 3f 11 d5 52 3f
       0.89717567 1.0104228 1.0339993 0.82356364
000060 aa d7 6b 3f 73 e5 74 3f 99 16 63 3f f0 41 7c 3f
       0.9212595 0.9566261 0.88706356 0.9853811
000070 e7 ce 68 3f 5d d1 51 3f 5b ef 73 3f 26 46 81 3f
       0.9094071 0.8196009 0.952871 1.0099533
000080 36 ff 51 3f fc 94 62 3f 1c 23 70 3f cb c4 74 3f
       0.82030046 0.8850858 0.9380357 0.9561278
000090 2a 40 50 3f 1b 02 82 3f 1f 01 60 3f a7 d7 31 3f
       0.81347907 1.0156893 0.8750171 0.69469684
0000a0 db b9 5d 3f fb 20 74 3f 32 12 39 3f 5f f3 76 3f
       0.8661172 0.95362824 0.7229339 0.96465105
0000b0 04 90 51 3f 36 f2 10 3f de 06 71 3f 00 80 65 3f
       0.81860375 0.56619585 0.94151103 0.8964844
0000c0 b0 0d 74 3f 54 08 68 3f f8 c8 75 3f 9a cb 6a 3f
       0.95333385 0.9063771 0.9600978 0.9171692
0000d0 09 30 85 3f 65 1e 60 3f 61 ce 88 3f 0f d8 33 3f
       1.0405284 0.8754638 1.0687982 0.70251554
0000e0 51 7b 65 3f e3 d0 7f 3f 21 e7 72 3f 2f c4 48 3f
       0.8964129 0.9992811 0.94883925 0.7842435
0000f0 78 c9 6d 3f 88 cf 76 3f 58 b9 68 3f 28 a4 70 3f
       0.9288554 0.9641042 0.9090781 0.9400048

bn2.running_mean f4 [64]
000000 11 09 1c 3e 7c d9 84 bc f3 83 7b 3e 36 6f 95 3d
       0.15237834 -0.016216986 0.24562053 0.072966024
000010 af 99 79 3e e8 00 76 3e 23 a9 56 3d 40 98 1a 3e
       0.24375032 0.24023783 0.052407395 0.15097141
000020 91 d8 d2 bd 61 4b 93 3e 6f 94 60 3d 77 ec 66 3e
       -0.10295213 0.28768447 0.054829057 0.22551142
000030 75 ec 4a bd 8f 23 aa 3d 15 16 b6 3e 66 ed d5 3d
       -0.04954191 0.083075635 0.35563722 0.10445671
000040 79 6a 0c 3e 22 b3 43 3e f5 f7 09 3c 21 d6 00 3f
       0.13712491 0.19111302 0.008420934 0.50326735
000050 e3 22 ab 3e 57 b8 01 3f 65 0d f8 3e d1 7f 4e 3e
       0.33425054 0.50671905 0.4844772 0.20165946
000060 41 f2 6e 3d 3a 20 59 3e f5 16 3e 3e 8f 09 24 3e
       0.0583365 0.212037 0.18563445 0.16019271
000070 4b 7d 86 3c aa 17 c1 3c 5a 16 1b 3e 64 9d 20 3e
       0.016417166 0.023570854 0.15145245 0.1568504
000080 23 97 af 3e c7 76 35 be 6f cc a6 3e 7f 2f 8f be
       0.34294996 -0.17721091 0.32577845 -0.27965924
000090 46 b3 b6 bc fa 33 ab 3e b6 de aa 3e d9 46 b9 3e
       -0.022302281 0.33438092 0.3337304 0.36186865
0000a0 b2 9b 2e 3e 91 aa 1b 3e 90 9a 8e 3e a8 a2 97 3e
       0.1705158 0.15201785 0.27852297 0.29616284
0000b0 ef 6e da bd 24 4a b9 3d ec b1 c3 3e ba 86 5e 3d
       -0.1066569 0.09047344 0.3822168 0.054327704
0000c0 aa d0 c7 3e 77 78 bb 3d 03 2b c3 3e 4d 4a 7a 3e
       0.39026386 0.09153836 0.38118753 0.24442406
0000d0 34 4d a4 3d f9 ea 5c 3d 43 44 00 3d 5e 9c e2 be
       0.08022538 0.053935025 0.0313151 -0.44259924
0000e0 52 ff 1f bd 3d 3b d7 3e f2 9b b7 3e 4f b5 95 3d
       -0.03906185 0.42037383 0.35861164 0.073099725
0000f0 eb 40 d2 3e 3b 48 44 3d 3c a8 e3 3d a0 78 a1 3d
       0.41065153 0.047920447 0.111160725 0.078843355

bn2.running_var f4 [64]
000000 98 e2 0b 3f d0 28 16 3f f2 0d 0f 3f 66 73 2c 3f
       0.5464263 0.58656025 0.55880654 0.67363584
000010 e5 a5 1b 3f e3 3f eb 3e 72 eb 18 3f 64 fd 1d 3f
       0.6080001 0.4594718 0.5973426 0.6171477
000020 1a 5c 39 3f 6e 9b 2b 3f 47 28 21 3f dd 94 1b 3f
       0.7240616 0.6703404 0.62952083 0.6077402
000030 ce ef 0f 3f 25 23 18 3f a2 cd 2b 3f 69 c8 04 3f
       0.5622529 0.59428626 0.67110646 0.518683
000040 48 a7 2a 3f 31 02 21 3f 08 41 1e 3f 54 59 2e 3f
       0.666615 0.6289397 0.6181798 0.68105054
000050 d3 d7 36 3f 95 bc 30 3f de e6 39 3f ca 87 11 3f
       0.7142307 0.69037753 0.726179 0.5684782
000060 06 41 fc 3e 2d 21 1c 3f 09 d0 25 3f df ce 0a 3f
       0.4926836 0.6098812 0.6477056 0.5422191
000070 05 c4 3b 3f 67 7d 38 3f 5e e5 15 3f 0f 69 15 3f
       0.7334598 0.7206635 0.5855311 0.5836343
000080 91 64 04 3f 13 eb 08 3f f6 df 2b 3f 3c 1a 1d 3f
       0.5171595 0.53483695 0.6713861 0.61368155
000090 1c 1c 32 3f a1 b8 44 3f 04 2d 0d 3f af 5b f5 3e
       0.6957414 0.7684422 0.55146813 0.47921512
0000a0 f5 c4 27 3f 8e 6b 1a 3f 72 75 19 3f eb d5 13 3f
       0.6553491 0.60320365 0.5994483 0.5774829
0000b0 44 07 47 3f 9c fe 0d 3f f3 51 2c 3f 15 0f 28 3f
       0.7774546 0.5546663 0.67312545 0.65648013
0000c0 6d 88 fb 3e ba 52 28 3f c1 11 71 3f f6 fa f7 3e
       0.49127522 0.6575123 0.94167715 0.48433656
0000d0 d6 c6 12 3f 77 dc 27 3f 98 06 45 3f 8d 0a 47 3f
       0.5733465 0.6557078 0.76963186 0.77750474
0000e0 a7 cf 0a 3f 23 3e 16 3f 92 6e 17 3f e0 68 17 3f
       0.542231 0.58688563 0.5915309 0.591444
0000f0 21 67 36 3f 69 e8 22 3f 83 43 0d 3f ef fc 05 3f
       0.7125111 0.6363588 0.5518114 0.5233907

fc3.weight f4 [56, 64]
000000 04 d4 de 3d ca 3c bb 3e 76 74 43 bf cc 0e bc 3e
       0.108802825 0.36569816 -0.7634958 0.3673004
000010 fb 30 61 bf 44 fc bd bf ce d4 99 3e d4 45 31 bf
       -0.87965363 -1.484261 0.3004517 -0.69247174
000020 3c 4e 83 bf 4e 38 7a 3e 48 00 0e 3e bc 66 1b be
       -1.025825 0.24435541 0.13867295 -0.15175909
000030 37 e9 c4 be 31 70 1d be 10 ad 53 bf 24 0d 59 bf
       -0.3845918 -0.15374829 -0.8268595 -0.84785676
000040 d7 a3 89 be cd 70 99 3d 94 c4 3d bf b9 ec b7 3e
       -0.26882812 0.07492218 -0.7412808 0.35922793
000050 8a 2a d4 bd a9 4c 0b bf b4 44 21 3e b1 1a 81 bf
       -0.10359676 -0.5441385 0.15748864 -1.008627
000060 6f ee b1 3e b7 01 54 be 89 c4 1b 3e 31 56 37 bf
       0.34752223 -0.20703779 0.15211691 -0.7161589
000070 c1 2c 92 be ef e1 4f bf cc ce 55 3e 83 2c 0d bf
       -0.2854977 -0.8120412 0.20879668 -0.55146044
000080 bf 19 68 be 0a e5 26 bf a4 4b ed be 27 f9 c2 3d
       -0.22666071 -0.65193236 -0.46346772 0.09520178
000090 7b 8c 08 bf 40 6c c0 3e 4d d0 60 bf d5 6a 8f 3c
       -0.53339356 0.37582588 -0.8781784 0.017506996
0000a0 ae 96 cf 3e a0 f5 bb be 6f d2 46 3e d7 7e 2f be
       0.40544647 -0.36710835 0.19416212 -0.1713823
0000b0 f4 55 8a bf d1 f4 1c 3e 7c fc 34 bf 49 2c 9d be
       -1.0807481 0.15327765 -0.7069776 -0.3069785
0000c0 81 aa 25 bf bb 9d 0d 3e 95 12 e2 be 13 e0 7c bf
       -0.64713293 0.138297 -0.44154802 -0.9877941
0000d0 3e e7 2e 3e 8b 1a 8a 3e cf e0 80 bf de 4e 89 3e
       0.170804 0.26973376 -1.0068606 0.26817983
0000e0 e0 72 2c 3e 3e 33 87 bf 3f 97 48 bf da 8c f4 bd
       0.16840696 -1.0562513 -0.78355783 -0.11940928
0000f0 80 b9 20 bf e0 fc 82 3e fa 84 13 bf 19 33 a6 bd
       -0.6278305 0.25583553 -0.5762478 -0.08115215
000100 d6 77 6c 3e 51 58 28 bf 98 fe 2a be 79 50 e6 be
       0.23092589 -0.6575976 -0.16698682 -0.4498327
000110 25 e3 4b 3e 45 97 ab be 02 7a 3d 3e 02 f7 59 bf
       0.19910868 -0.33513847 0.18503574 -0.8514253
000120 97 6c 23 bf 1d b5 70 bf d7 36 ac 3e 62 9f 71 3e
       -0.6383757 -0.94026357 0.3363559 0.23595956
000130 14 68 f2 3d 0b 43 13 bd 64 a0 41 bf 3f ce c9 be
       0.118362576 -0.03595261 -0.7563536 -0.39415166
000140 59 c0 1e bf 13 29 e7 be 8d ef db bd 46 05 38 bf
       -0.6201225 -0.45148525 -0.1073905 -0.71883047
000150 a0 e0 90 be 9e da 96 3e 2b f9 38 bd 01 42 0e 3e
       -0.28296375 0.29463667 -0.0451595 0.13892366
000160 28 a1 f5 be 52 44 d5 3e 36 f3 9d be 1c 18 fd be
       -0.47974515 0.41653687 -0.30849618 -0.49432456
000170 57 e0 38 bf 2d 69 39 3e ba 7e 2c 3e 66 f3 71 bf
       -0.72217315 0.18106528 0.16845217 -0.9451202
000180 4d 24 44 3e 20 42 35 bf 21 21 46 3e 8d d2 16 bf
       0.19154473 -0.70804024 0.19348575 -0.58915025
000190 ea 28 0b bf 77 02 4c bf a5 26 f6 bd aa 28 ba 3e
       -0.54359305 -0.7969126 -0.120190896 0.3635915
0001a0 f3 6d 3e bf d9 90 33 3e 40 73 22 bf e4 1e bd 3e
       -0.7438652 0.17535724 -0.6345711 0.3693763
0001b0 1e 78 a9 3e a1 e9 51 be 05 60 34 bf 79 e0 70 3e
       0.33099455 -0.20499279 -0.70459014 0.2352313
0001c0 7d 56 4e bf 7e c5 09 bf 28 f1 eb be 26 f7 20 bf
       -0.8060072 -0.53816974 -0.46082425 -0.6287712
0001d0 86 08 ba be 29 fe d9 be 58 96 31 bf 50 c6 5f be
       -0.36334628 -0.4257672 -0.6937003 -0.21852994
0001e0 59 63 43 bf f7 40 fb 3e 4f 8f 49 be 45 5d 8e bd
       -0.7632347 0.49073002 -0.19683574 -0.069513835
0001f0 de 3d 06 bf 74 d2 fa 3d f2 13 6f bf a5 3f e7 3b
       -0.5243815 0.12247172 -0.9338981 0.0070571476
000200 cd 58 6e bf 4b ef 88 bf a3 a3 b2 bf b6 d5 b1 be
       -0.9310425 -1.0698026 -1.3956188 -0.3473336
000210 f9 ac e8 3d a7 52 8d 3e 85 57 fd 3d 25 ff 1a bf
       0.11361117 0.2760212 0.12370209 -0.6054557
000220 14 b4 82 bf 15 d2 18 3e 84 cf c1 3a 3d c2 ff bc
       -1.0211205 0.1492389 0.0014786576 -0.03122055
000230 9b 9f 45 bf 93 a4 bc 3e 42 df 8d bf de ba 51 3e
       -0.77196664 0.3684431 -1.1083758 0.2048144
000240 24 d3 8d be bf a2 c3 3d 47 b3 36 be d2 38 bc 3e
       -0.2770015 0.09552526 -0.17841826 0.367621
000250 24 05 15 bf c3 fe 0a be 24 b4 34 bf a2 1c 50 3d
       -0.5821097 -0.13573746 -0.7058737 0.050808556
000260 67 5e cc 3e 90 a7 96 bd 6d d8 89 3e ef 09 df bd
       0.39915773 -0.07356179 0.26922932 -0.108905666
000270 a9 46 eb be ca 95 81 bf e6 0f 8f bf 6c e8 03 bf
       -0.45952347 -1.0123837 -1.1176727 -0.5152652
000280 81 55 56 3e e9 0b ab be ca 6a 75 bf 9b 36 50 3e
       0.20931055 -0.33407524 -0.9586607 0.2033333
000290 fd d4 16 3e da e6 39 3e ea 93 83 3e 68 8f 0e bf
       0.14729686 0.18154469 0.25698787 -0.5568757
0002a0 af 44 86 bc 0a fa 58 bf 9e 00 53 bf 33 6d 2f bd
       -0.016390173 -0.8475653 -0.82422817 -0.04282875
0002b0 31 f7 fd be 76 4d 8e be 0e 36 80 3d 65 41 16 3d
       -0.49602655 -0.27793473 0.0626031 0.03668346
0002c0 e6 a1 7d 3e 77 fb f9 be 2f 24 56 bf 52 39 3e be
       0.2476879 -0.48824665 -0.8364896 -0.18576553
0002d0 7f dd d5 3d a8 26 ab 3c 66 7b 5f bf 23 57 0d bf
       0.10442638 0.020892456 -0.87297666 -0.55211085
0002e0 54 a4 a7 bd 7d df c2 3d 39 7f 46 bf c1 10 ad 3d
       -0.0818564 0.09515283 -0.77537876 0.08450461
0002f0 89 44 23 bf 61 4a a8 bf a7 5f 75 bf 81 64 9f bc
       -0.6377645 -1.3147699 -0.9584908 -0.019457104
000300 e3 c3 04 bf 39 86 35 bf 64 0b 8c bf 4f 62 6e bf
       -0.518614 -0.7090793 -1.0940976 -0.93118757
000310 21 89 40 3e 3d 3f 20 bf 7e 5d d7 be 81 77 b8 3e
       0.1880231 -0.62596494 -0.42063516 0.36028674
000320 6c 85 33 be c2 c8 61 3e b2 86 46 3e 2a 5c 14 be
       -0.17531365 0.2204924 0.1938732 -0.14488283
000330 b5 e4 18 be 86 62 4b bf a9 18 6a bf cf cf f2 bd
       -0.14930995 -0.7944721 -0.9144388 -0.118560426
000340 96 83 0c be a3 7e 12 3e dc 86 f5 3d e7 65 95 bd
       -0.13722071 0.1430612 0.11988613 -0.07294827
000350 14 a2 2a 3e f7 95 73 bf 87 9a 91 3e 1d ee 7d bf
       0.1666339 -0.95150703 0.28438208 -0.9919146
000360 45 db 9b 3e 68 1b 87 bf 1f ea c5 3d 87 62 0f be
       0.30440727 -1.0555239 0.09663796 -0.14002429
000370 89 c8 83 3e 29 61 82 bf a6 4c 45 3e bc 30 36 bf
       0.25738934 -1.0185901 0.1926752 -0.7116811
000380 4d 7f 9c bf bd 03 b3 bc 0b 95 82 3e fa 73 3f bf
       -1.2226349 -0.021852368 0.25504336 -0.7478634
000390 de 6e 96 3e 3c 6e 1d bf 4a 23 88 be b8 6a ec be
       0.2938146 -0.6149633 -0.26589423 -0.4617517
0003a0 de 7d ff be 1f 55 72 3e 72 09 24 3e 14 7a 9d be
       -0.49900717 0.23665284 0.16019228 -0.307572
0003b0 ac b0 57 bf d7 1f 1f bf 0c ad 85 bc f3 05 79 bf
       -0.84253955 -0.6215796 -0.016317867 -0.972747
0003c0 7f 85 1e bf ea 3e bd 3e c9 5d 3d bf 0f 62 22 bf
       -0.6192245 0.36962062 -0.7397123 -0.63430876
0003d0 bd 3a 23 bf 19 67 fa be a8 f2 f8 bd 91 11 08 bf
       -0.637615 -0.48906782 -0.12155658 -0.53151804
0003e0 22 15 92 3e 50 08 07 3e 2e 7c 6d bf 43 15 0a bf
       0.28531748 0.13186765 -0.9276761 -0.5393869
0003f0 1e e6 c2 be 40 25 fa be 82 19 e0 3d 45 64 72 3e
       -0.3806619 -0.48856544 0.10942365 0.23671062

fc3.bias f4 [56]
000000 ac 78 a9 3c c6 38 c8 bd 68 16 20 be 0e 2d b4 3d
       0.020687424 -0.09776454 -0.15633547 0.08797656
000010 c7 e9 96 3d 93 2b 9b bd 50 11 09 be 66 3d d1 bd
       0.07368808 -0.075766705 -0.1338551 -0.10216789
000020 33 cf 07 be c5 11 b2 bd 5d 18 26 be 04 f6 e7 bb
       -0.13262634 -0.086947955 -0.16220231 -0.007078888
000030 80 b9 53 3d 7f 59 31 bc 8b a1 2c 3c d6 b5 03 3e
       0.05169058 -0.01082456 0.010536562 0.12862334
000040 ad 32 38 3e bb 1b c6 bc bb 13 52 be 5c 15 21 be
       0.17988081 -0.024183145 -0.20515339 -0.15730804
000050 12 fd 02 be d5 90 f8 bd 43 18 21 be d2 07 10 ba
       -0.12791851 -0.121369995 -0.15731911 -0.00054943294
000060 06 03 8b bd a3 cb 92 3d 67 20 0c be fc 2d 4f be
       -0.06787686 0.07167747 -0.13684236 -0.20232385
000070 45 b5 65 3d e9 ce 0a 3d 35 8c 14 bd 66 1d 0e 3d
       0.056081075 0.03388873 -0.036266524 0.034696005
000080 e1 28 81 bd 00 9f 8b bd a8 02 94 bd 50 3a 8d 3d
       -0.06306625 -0.06817436 -0.07227069 0.06895888
000090 f8 27 5b bd 45 09 5b 3e 38 ce 1f be d5 a8 08 bd
       -0.053504914 0.21390255 -0.1560601 -0.033364136
0000a0 61 f5 3b be d4 5a a3 bb 39 d5 84 bd ef 53 b6 bd
       -0.18355323 -0.004985193 -0.064859815 -0.08902728
0000b0 c4 d5 6d bd c2 1c b0 3c dd e9 3b 3b b6 8a 22 3e
       -0.05806519 0.021498088 0.002867333 0.15873227
0000c0 bb 4a 08 be 24 61 d3 bc 8f 4c ee bd 86 85 2e bd
       -0.13309757 -0.025803156 -0.11635696 -0.042607807
0000d0 2d 0e be 3d 45 e3 9d bd ae 27 ca 3d e2 f7 0e 3e
       0.092800476 -0.07709364 0.098708495 0.13961747
