model.pth (torch, 7156 bytes, 6 tensors)

l1.weight f4 [8, 87]
00000000: c03c 08bf d8b8 393e 505a 35bd e731 aabe
00000010: dbdb 82bd 2fab a8be 7ece d43e 1e4b 543e
00000020: 2827 8c3e 8d5e 853f 52ea 18bf 51df cbbe
00000030: 6427 bebe 8124 73bd 05d2 633f a359 5e3f
00000040: 11f9 08be 1987 d03e 5092 223e e8ab 2dbf
00000050: a230 5d3e 73ec a43e 24db 18bf 104d b1be
00000060: 8d22 d0bd 5c35 2ebf 38c1 6b3f 3d5e 37be
00000070: d8a3 f6be 996e a83e 99fc bebe a089 fe3e
00000080: 6081 90be a063 aebe 2158 bcbe 5e2c f1be
00000090: b757 cf3d 0f6c a13e 0686 123f a4d6 bb3e
000000a0: ceaa 1bbf b94e c83e 24af afbe da59 1dbf
000000b0: 399c e5be c629 5e3f 907d 0cbf 220a a13e
000000c0: d1d4 c7be 3756 693e bb77 21bc bb10 b43e
000000d0: a887 473e 1e07 88bd d685 30bf c2c7 0d3f
000000e0: 3345 4d3f ec3a 6d3e ee5e 703c 0de7 823f
000000f0: 9626 043f cfd9 3e3d f9e4 0e3f 07f1 b7be
00000100: 4264 d03e f9f6 493e 2444 dbbe 16f1 a2be
00000110: cd4d 413f 366c b3bd 8b19 a9be b4cb 5b3e
00000120: e5cd 7e3e f485 6e3f b528 203f 696b 143f
00000130: 316a 95bc f305 113f 5ec5 c53e 1609 fabe
00000140: a5a4 bcbe 7859 1e3f cb78 113f 0c0d 8a3e
00000150: deae d9be d7e1 883e e2df e9be 176e 2e3f
00000160: 2d72 04be d568 46bf 3998 16bf fa19 2abe
00000170: db04 ffbe fd74 46bf 5e39 403d c2d7 0cbe
00000180: 677c 083f 6c9f 4c3f 0053 813f a195 fa3e
00000190: d13b c63e 27c8 ce3e 9749 403e 37ce b5be
000001a0: 398c 113f c7f0 28bf 4058 433f 7c33 be3e
000001b0: 41b1 363f 7041 07bf 8ec9 a8be d2a7 e9be
000001c0: ef82 3f3f 4eb8 863f b2a7 40be c0eb 42bf
000001d0: 379c c83e 870f 4abf 8270 4abe 9e2e 5cbf
000001e0: 2e11 42bf 9f23 40bf bb3d 52bf b8b2 efbd
000001f0: 7e64 fcbd f440 7cbc 3643 433f eefa 3cbf
00000200: 700e 1f3f 65ec e5be 154e 793f b2c0 00bf
00000210: 2180 cf3e 05e7 2b3f 6cd1 993c 7456 f1be
00000220: 1f73 a1bd 3a9c f1bd 11ca a0bd bd00 5fbd
00000230: 50fd 833c 8a4f 453e 80ca 96bf f672 963e
00000240: face 1b3f 90db d43d aa45 0b3f 1089 603f
00000250: 6362 cbbd 4652 843f e0b8 243f 14dc 413f
00000260: 7cc0 8dbc f222 eebe 00eb 183f 127d 193f
00000270: d1f1 f7bd 2b4f 323f a2c7 ad3c b5ac 46bf
00000280: bac1 8bbf 247f f4bd 9d4f 0a3f 965c bb3d
00000290: c254 113f ad00 b03c 0342 1c3e 937c 12bf
000002a0: 6255 673e 5774 0b3f 4019 e03e af5f 4fbf
000002b0: a90c 563e f1cf cd3f 2ecb 233e 9940 70bd
000002c0: 436a 133e b0bc dcb9 4b27 44be 7ed1 fd3e
000002d0: 53d2 98be f7ac a33d b054 0fbe 3378 793e
000002e0: 44a0 d9be 183a 26bf 0d59 dcbd 0619 593e
000002f0: 7ad9 52be d179 ddbe 406c ce3e b9b6 ecbe
00000300: 849c 143f e7cf ccbe b8b6 013f 7363 0f3f
00000310: ff8e 41bc 1999 eb3e a13f d13e e50c c2be
00000320: e574 533f 496c 8bbd c9e7 ec3e 46ea 47be
00000330: 317f 1f3f 704e 06bf dfeb 213f cfce 063f
00000340: 865c 323f d15f d23e dffe 8dbe 0adb 453e
00000350: 6d1e 95be 3889 c4be b0e9 453e d3b7 c2be
00000360: 98db 6f3e eac6 98be a1b3 b43d 403a 473e
00000370: 3051 9d3e 12b4 58be 1123 71be 90c1 32be
00000380: a9db f1bd 0803 5fbe d272 27bd e07a 6e3e
00000390: ee58 c63e a678 913f ed65 ddbe f0a1 b8be
000003a0: 5fe3 d43e 9b45 9abc 7941 133e 6ed9 19bd
000003b0: 1c6a 873f 274f 203e f59a fabe 491d dfbd
000003c0: 1aec babc b18e 28bd 52f9 7a3e 7407 613e
000003d0: 1dcb 2bbe 8248 eebd 56de 1e3f 82d0 5bbf
000003e0: 9ba0 fabe a4b5 4abe 0916 053e f0bf 2abf
000003f0: f020 77be e4d8 7b3e c47f 093f 4667 a33d
-0.532177 0.18136919 -0.04427558 -0.33241197 -0.0638959 -0.32943103 0.4156379 0.2073178
0.27373624 1.041948 -0.59732544 -0.39818814 -0.37139428 -0.059360985 0.8899234 0.86855525
-0.13376261 0.4072807 0.15876126 -0.67840433 0.21600583 0.32211646 -0.5970938 -0.34629107
-0.1016284 -0.6805017 0.92091703 -0.17907043 -0.48171878 0.3289688 -0.37302092 0.49714375
-0.28223705 -0.34060383 -0.36785987 -0.47104162 0.10124152 0.31527755 0.57235754 0.36687195
-0.608075 0.3912256 -0.3431331 -0.6146523 -0.4484575 0.8678249 -0.54879093 0.31453043
-0.39029554 0.22786795 -0.009855206 0.35169014 0.19485343 -0.066419825 -0.6895422 0.5538293
0.80183715 0.23167008 0.0146710705 1.0226761 0.5162138 0.046594437 0.55818135 -0.35926077
0.4070149 0.19723119 -0.42825425 -0.3182456 0.7550934 -0.08760874 -0.330273 0.21464425
0.2488323 0.93173146 0.62562114 0.57976395 -0.018239113 0.566497 0.38627142 -0.48835057
-0.36844364 0.6185527 0.5682494 0.2696308 -0.42516226 0.26734802 -0.45678622 0.68136734
-0.1293418 -0.7750371 -0.58826023 -0.16611472 -0.49808392 -0.7752226 0.04692971 -0.1375418
0.5331482 0.7993076 1.0103455 0.48942283 0.3871751 0.4038708 0.18778072 -0.35508892
0.5685459 -0.659924 0.76306534 0.37148654 0.7136422 -0.52834225 -0.32966274 -0.4563585
0.74809164 1.0524995 -0.1881397 -0.76140976 0.39181682 -0.7892994 -0.19769481 -0.8600863
-0.75807464 -0.75054353 -0.82125443 -0.1170401 -0.12323855 -0.015396345 0.7627443 -0.7382039
0.62131405 -0.44906917 0.9738477 -0.5029403 0.40527442 0.6714938 0.018776618 -0.4713627
-0.07883286 -0.11797376 -0.07851041 -0.054444063 0.016112 0.19268623 -1.1780548 0.29384583
0.60862696 0.10393441 0.54403174 0.8770914 -0.09930875 1.0337608 0.64344597 0.7572644
-0.017303698 -0.46511036 0.5973358 0.5995647 -0.1210667 0.6965205 0.021213356 -0.7760728
-1.0918496 -0.11938313 0.5402773 0.09148519 0.56769955 0.021484697 0.15259556 -0.57221335
0.22591165 0.54474396 0.43769264 -0.81005377 0.20903267 1.6079084 0.15995476 -0.058655355
0.14396004 -0.00042102253 -0.19155614 0.49573892 -0.29847965 0.07991975 -0.1399715 0.24362259
-0.42505085 -0.64932394 -0.107591726 0.21200952 -0.20590773 -0.43257 0.40316963 -0.46233156
0.58051324 -0.40002367 0.5066943 0.5601112 -0.011813878 0.46015242 0.40868858 -0.37900463
0.8260024 -0.06807763 0.46270588 -0.19522962 0.62303454 -0.52463436 0.63250536 0.52659315
0.6967243 0.41088727 -0.27733514 0.19321838 -0.29124776 -0.3838594 0.19327426 -0.38030872
0.23423612 -0.2983926 0.08823324 0.19455814 0.30726004 -0.21162441 -0.23548533 -0.1745665
-0.11809475 -0.217785 -0.040880986 0.2328906 0.38739723 1.1364944 -0.43241826 -0.36061049
0.4157972 -0.018832019 0.14380445 -0.037560873 1.0579257 0.15655194 -0.48946348 -0.108942576
-0.02281766 -0.041151706 0.2450917 0.219755 -0.167767 -0.116349235 0.6205801 -0.8586503
-0.48950657 -0.19795853 0.12996687 -0.66699123 -0.24133658 0.24594456 0.5371058 0.07978682

l1.bias f4 [8]
00000000: f63e 593f dec2 8b3f 52bd 8c3f 2d59 2f3f
00000010: 2651 3a3f 701d 393f 2c19 943f 903a a33f
0.84861696 1.0918844 1.0995276 0.68495446 0.7278007 0.72310543 1.1570182 1.2752247

l2.weight f4 [8, 8]
00000000: 2859 87bf f96b bdbe 84b0 12bf 1927 513f
00000010: 7ffd 363f 9326 a73f 7512 9c3f cc59 c03f
00000020: c10e 82bf 2176 6a3f 864a 69bf a342 8d3f
00000030: dc84 ed3f 2a4c b33f 5161 803f b63a 3fbf
00000040: 7e0d cf3f 7c83 3b3e 2e83 e3bf 0585 95bf
00000050: 1c8d 743f 557f b53c 0dfe 3d3f 8e16 5a3f
00000060: 0f21 983f fbc5 29bf 3e40 373f 9c3c 02bf
00000070: 2f86 733f 2c24 e83f 7243 58bf ab99 b3be
00000080: 0bb7 a3be 60ad 4fbc 671d a6be 345e 003e
00000090: 8d67 32be 98e7 4bbe 8f79 08be 00c2 42bb
000000a0: 931c 4cbf 4b0b 94bf d873 e83f 3346 d83f
000000b0: b34b 543e 367c 2b3f 529b 843f 7ca3 da3f
000000c0: 9768 4d3f b8a5 333f 91ac a33f 9222 19bf
000000d0: 397f 85bf 33c3 f8be 4bd1 fc3f 692f 9e3f
000000e0: 07d2 913f 7777 2240 5a05 983f bdc0 4a3d
000000f0: d2c0 9d3f e227 2fbe 7e21 3bbf f1b8 13bf
-1.0574083 -0.3699644 -0.5730059 0.81700283 0.71480554 1.3058647 1.2193133 1.5027404
-1.0160753 0.915865 -0.9112934 1.1035961 1.855617 1.4007618 1.0029699 -0.7469896
1.6175992 0.18311876 -1.7774408 -1.1681219 0.95527816 0.022155443 0.74215776 0.85190666
1.1885089 -0.6631772 0.715824 -0.5087373 0.9512662 1.8136039 -0.84477913 -0.35078177
-0.31975588 -0.012675613 -0.32444307 0.12535936 -0.17422314 -0.19912565 -0.13327621 -0.0029717684
-0.797311 -1.1565946 1.8160353 1.6896423 0.20732002 0.66986406 1.03599 1.7081141
0.80237716 0.7017474 1.2787038 -0.59818375 -1.042945 -0.48586425 1.9751371 1.2358218
1.139222 2.5385416 1.1876633 0.049500216 1.2324469 -0.17105058 -0.7309798 -0.57704073

l2.bias f4 [8]
00000000: bc3a b63e 5a3b 0abd bc36 e83d e45e 0f3e
00000010: e04d cabd d72b 5c3f 2aa0 b33e 5450 813f
0.35591686 -0.03374801 0.11338565 0.14001042 -0.09878135 0.86004394 0.35083133 1.0102639

l3.weight f4 [11, 8]
00000000: ac27 ef3e 24d1 453f 671f 94bf ea6c 303f
00000010: bdef a2be a7dd b33e 4e41 10c0 878a cfbf
00000020: 2360 ec3e a86c 123f f11a 40bf 1499 12c0
00000030: 78bd 65bd 3887 b43d 55db 09bf 34e9 4fbe
00000040: 3797 e33e 0e3e e6bf fd7f ddbf a4fe a2bf
00000050: 5016 15bd 793e 333f 0963 803f 6adc b2bf
00000060: 7de3 6ebe c289 183f 7513 353f 7fa4 62bf
00000070: 559e a1be 9b2d edbf c45d e0be f7d0 9dbe
00000080: 7c5b 8fbf c6fc c4bf 74c4 e23c 526c 943f
00000090: 61ac 91be 4c79 1dc0 edfc 9dbe 4ca3 183f
000000a0: 7965 c33e 5bcd 2c3f ddff 1bbf 775a b63e
000000b0: fcaa a0bd e3ed 7cbf 0c31 2ec0 d4f7 9b3d
000000c0: b51f 2cbf d4de 8dbf 118d debf ede2 9c3f
000000d0: 0d92 5fbe bd0f aa3e 76f0 e4be 6f5c 14be
000000e0: b3d3 d9bf 9a8b a53e 95db 28c0 1d96 2ebf
000000f0: 90da b5bc 8664 d7be 2420 4ebf 5a14 5e3f
00000100: c595 d7bf a027 07c0 a623 d5bf a3c4 66bf
00000110: b3a0 a93e adbc 14bf 6b53 b53f 7206 b93e
00000120: 5dc4 823e ae6b e6bf d551 833f 635b fdbf
00000130: f900 8ebe 3eac 80bf 5e06 673d 4f8f ed3d
00000140: 9e02 933e c879 3b3d d092 6f3f 8ac7 283f
00000150: deb1 563e df85 64be e0d5 30bf 5f4a e0bf
0.46709955 0.7727225 -1.1572083 0.6891619 -0.3182353 0.35130045 -2.253986 -1.621415
0.46167096 0.57197046 -0.7504111 -2.2905931 -0.056088895 0.088148534 -0.538503 -0.20303804
0.44451305 -1.7987688 -1.7304684 -1.273396 -0.036398232 0.700172 1.0030223 -1.3973515
-0.23328967 0.595852 0.70732814 -0.8853225 -0.3156611 -1.8529543 -0.43821537 -0.3082349
-1.1199794 -1.538964 0.027681567 1.1595557 -0.28451827 -2.4605284 -0.3085703 0.5962417
0.38163355 0.6750085 -0.6093729 0.35615894 -0.07845113 -0.98800486 -2.7217436 0.07615629
-0.6723588 -1.1083627 -1.73868 1.2256752 -0.21833058 0.33215132 -0.44714707 -0.14488386
-1.701773 0.3233307 -2.6384022 -0.68197805 -0.022198945 -0.4206888 -0.8051779 0.86749804
-1.6842581 -2.1117935 -1.6651504 -0.90143794 0.33130416 -0.58100396 1.4166082 0.3613773
0.25540438 -1.8001611 1.0259348 -1.9793514 -0.27735117 -1.0052564 0.056402557 0.115995996
0.28712934 0.045770437 0.93583393 0.6592947 0.20966288 -0.22316693 -0.6907635 -1.7522696

l3.bias f4 [11]
00000000: e218 90be 3e53 b53e 59d6 6a3e bb3e d5be
00000010: 4e45 55be 2673 d4be 8d65 023d 7f2d 893b
00000020: b3f1 de3e a98d a6bd bc2e 8dbe
-0.28143984 0.3541507 0.2293333 -0.41649422 -0.20827219 -0.414941 0.031835128 0.0041863318
0.43543777 -0.08132488 -0.27574718
